HW4/outputs/pre_trained_model_res.pt (torch, 539967 bytes, 18 tensors)

conv1.weight f4 [128, 3, 9, 9]
000000 89 1f 85 bd a8 e4 c8 bd 01 71 09 3e d8 22 02 3e
       -0.065001555 -0.09809238 0.13422014 0.12708604
000010 b3 9e 3d 3d 02 f1 03 3e 1d e6 05 bd 72 25 e1 bb
       0.046293925 0.12884906 -0.032690156 -0.006870919
000020 8e 32 7c bd 8d e4 e9 bd e9 ec 5f be 2d a3 a9 bd
       -0.06157165 -0.11420546 -0.21867718 -0.082830764
000030 94 bc 9d bd cd df 8a bd 91 a2 17 3e 06 00 50 3d
       -0.07701984 -0.06780968 0.14808108 0.050781272
000040 68 9e 8a 3d 42 be 86 3d 8a f9 80 be a8 d5 e1 be
       0.06768495 0.065792575 -0.25190383 -0.4410832
000050 b0 80 ad 3c 21 cc 22 bd 44 00 32 be c0 bc 07 3d
       0.021179527 -0.039745454 -0.17382914 0.03313899
000060 a1 df ec bc fa 05 3a bd a5 78 c7 3c d3 19 93 be
       -0.028915228 -0.045415856 0.02434952 -0.2873064
000070 27 9d 0a bf 02 78 6c 3c 19 a5 13 3a 30 ee 05 bd
       -0.54146045 0.014432909 0.00056322064 -0.032697856
000080 ec 2d 28 3d 66 e9 f2 bc f4 99 9d bd 4e 5a 2e 3d
       0.04105942 -0.029652309 -0.0769538 0.04256659
000090 06 9e a4 be 33 bd 06 bf 1e cd 94 be 05 7e 72 bd
       -0.32151812 -0.52632445 -0.29062742 -0.059202213
0000a0 2f 18 92 3d 86 ad 4e 3d 77 9d 9e bc 5c b0 e0 bd
       0.07133519 0.050458454 -0.019362194 -0.10971138
0000b0 f9 01 01 bd 61 1e 8b be a6 67 1b bf 12 50 95 be
       -0.031496022 -0.27171615 -0.6070503 -0.2916265
0000c0 78 e8 81 bd 2b a2 60 3e 1a d8 0e 3e 3b a8 35 3c
       -0.06343168 0.21936862 0.13949624 0.011087473
0000d0 94 32 d6 bd 81 9d 57 3d 15 5e b8 be de 21 16 bf
       -0.10458866 0.05264044 -0.3600928 -0.5864543
0000e0 f1 ba 30 be 8d 4b 1b 3e 34 82 a4 3e 91 22 0f 3e
       -0.17258812 0.15165539 0.32130587 0.1397803
0000f0 14 44 44 bd 31 32 94 bc 12 b5 c6 3c 21 94 9e be
       -0.047916487 -0.01809034 0.024256263 -0.30972388
000100 41 ca c3 be fd 1b 44 bd 1e 87 4e 3e b3 ed 8a 3e
       -0.38240245 -0.047878254 0.2016873 0.27134475
000110 61 f7 f2 3d e0 96 fc bd 3b b1 70 3d 58 9a 9e 3c
       0.1186359 -0.123334646 0.05876277 0.019360706
000120 3f df 67 be 16 87 8d be fa a5 12 be 48 ff 8c bc
       -0.22643755 -0.27642125 -0.14321128 -0.017211571
000130 25 9d 45 3d e2 8b 34 3d 88 ef 84 3b ef 5b 34 3d
       0.048245568 0.044078715 0.0040568747 0.044032987
000140 4b 2f 01 3d 1d ca a6 be 35 46 d2 be ad 0e 10 3e
       0.031539243 -0.32576075 -0.4106919 0.14068098
000150 78 ed 02 3e 8d 1e 7c 3c dc 88 7e 3c 5c 29 18 3d
       0.127859 0.015388143 0.0155355595 0.03714882
000160 e5 e1 d6 bd d0 ca 1c 3c 30 c3 b4 be 45 6a 0c bf
       -0.10492305 0.009569839 -0.35305166 -0.54849654
000170 56 c2 a4 bd fb 8e ed bc ac e6 9d bc 8a 25 d1 3d
       -0.08044879 -0.028998842 -0.019275032 0.10212238
000180 a5 3b 9a 3d 93 01 6c bd 04 03 2a 3d 5d 10 e4 be
       0.075309075 -0.05761869 0.041506782 -0.44543734
000190 ad d9 3e bf b5 b5 dd 3d 01 a0 94 3b d3 e4 32 be
       -0.74550897 0.108256735 0.0045356755 -0.17470102
0001a0 9a 47 46 bc 70 08 2c bd fd 66 f1 bd 6f dd d1 bc
       -0.012102032 -0.042000234 -0.117872216 -0.025618283
0001b0 e0 01 fe be e1 4c 3f bf 6a ba bf 3d 1d b9 90 3d
       -0.49610806 -0.7472668 0.093617275 0.070665576
0001c0 93 3b 4b 3d 01 f0 90 3d 2e a5 4d 3d c9 d3 11 3d
       0.04961736 0.07077027 0.050206356 0.035602365
0001d0 6a 3c 91 3c 06 32 dd be d3 d4 46 bf 07 d1 4b be
       0.017729003 -0.43202227 -0.77668494 -0.19903956
0001e0 97 ec be bb 0f 23 ce 3d e8 fc cd 3d 77 61 8c 3c
       -0.0058265436 0.10065281 0.10058004 0.017136319
0001f0 2b 31 a4 bd 6d 80 39 3c 58 88 06 bf 66 a6 55 bf
       -0.080171905 0.011322123 -0.52551794 -0.8345703
000200 4e 38 9d be 59 ff 15 bd c6 6a 9a 3e 17 d2 e5 3d
       -0.3070702 -0.03662047 0.30159587 0.11221712
000210 04 54 13 be 27 9a 2b bd 5a 0f 35 3c 6c 6f 1e bf
       -0.14387518 -0.041895058 0.011051023 -0.61888766
000220 5f f8 46 bf 4e d8 22 be e3 3a cb 3d 52 dc b7 3e
       -0.77722734 -0.15902826 0.09923341 0.3591028
000230 22 ad a1 3d 1d 55 01 be 5f fb 4a bd 47 fd 46 3d
       0.078943506 -0.12630124 -0.049556132 0.048581388
000240 a5 e9 04 bf e5 bf 29 bf d0 32 85 bd 37 1a 4a 3e
       -0.51919013 -0.6630843 -0.06503832 0.19736563
000250 11 22 8d 3e 44 b7 9b bd 79 53 1d be 34 51 a1 3c
       0.27565053 -0.076033145 -0.15363874 0.019692041
000260 a1 b6 fc 3c 8b f1 c5 be 4f 6c ed be cb 99 df bd
       0.030848803 -0.38660845 -0.46371695 -0.109180056
000270 e9 cb 5b bc 93 18 8c 3d 80 ff 83 3c a9 13 cc bc
       -0.013415315 0.06840625 0.016113043 -0.024911718
000280 d8 a4 c0 bc 27 d4 73 3d 23 ea c6 be 40 2d 04 bf
       -0.023516104 0.059528496 -0.38850507 -0.51631546
000290 dd 82 29 3e 35 3c a9 3d e5 6e 1f 3d e3 c5 40 3b
       0.16553827 0.08263437 0.038924117 0.0029414825
0002a0 7f fa 98 bd d1 df 85 bd 37 88 52 bc 54 57 da be
       -0.07469653 -0.0653683 -0.012849859 -0.4264475
0002b0 29 c6 1d bf 90 f5 77 bd 87 21 40 be cd 63 26 be
       -0.61630493 -0.06053692 -0.1876279 -0.16249008
0002c0 d6 dd ac 3d 44 b1 8c 3c 85 f4 85 bb fc ca 2d 3d
       0.08440749 0.01717437 -0.004087987 0.04242991
0002d0 e7 92 05 bf 90 f0 4d bf 4c 40 00 3e 14 75 00 bb
       -0.5217728 -0.80445194 0.12524527 -0.0019601034
0002e0 ef b4 14 be a3 7e ed bc 09 12 24 bd 3c 7e d3 bd
       -0.14522146 -0.02899105 -0.040056262 -0.10326812
0002f0 19 32 9b bd 8f ce f9 be 78 bf 42 bf 1d 84 40 3e
       -0.07577915 -0.48790404 -0.7607341 0.18800397
000300 71 59 c2 3d df 2b c2 3d f0 b2 3e 3e 44 ef 0f 3e
       0.09489716 0.09481024 0.18622947 0.14056116
000310 f7 f5 63 3d 5a 77 d8 3d a4 f7 0c bf 61 d6 41 bf
       0.055654492 0.105696395 -0.5506537 -0.7571774
000320 c3 41 17 be e0 85 17 3d 0a f1 f3 3d b9 38 1d 3e
       -0.1477118 0.036992908 0.11911209 0.15353669
000330 86 e3 80 bc d6 19 01 3d b2 ab 29 3d f3 4b 20 bf
       -0.015733492 0.03151878 0.041423507 -0.6261589
000340 bc 95 5c bf 92 0b b4 be e9 38 64 bd 86 73 b1 3e
       -0.86165977 -0.35165077 -0.055718336 0.3465845
000350 9f a2 14 3d 14 cc 27 be 3d 58 a4 bd 2b 2f 1a 3d
       0.0362879 -0.16386443 -0.080246426 0.03764264
000360 14 e4 15 bf 58 6c 59 bf 16 bb 63 be 6c e7 5c 3d
       -0.58551145 -0.84930944 -0.22239336 0.05393164
000370 92 9d b9 3e e4 9a ba bd b6 bb ac be 69 8a 2f be
       0.3625303 -0.09111574 -0.33736962 -0.17142643
000380 c6 b8 a4 3d 34 11 06 bf b5 a5 36 bf 91 22 b4 bc
       0.08043055 -0.5237 -0.713466 -0.021989139
000390 65 2f 41 3e e2 b8 9e 3e 79 71 04 be a7 8c 3c be
       0.18865736 0.3100043 -0.12933911 -0.1841303
0003a0 5f 8c 18 bd b5 df b7 3d 1e a2 e4 be 5b 8a 08 bf
       -0.037243243 0.089782156 -0.44654936 -0.53336114
0003b0 59 46 03 be 0a 32 02 3d 86 d6 9b 3d d5 cd dd bd
       -0.12819804 0.031786002 0.076092765 -0.10830275
0003c0 8a 78 f0 bd 68 92 28 bd 0e f8 29 3d 5d 2b 20 bc
       -0.11741741 -0.04115525 0.04149633 -0.009775964
0003d0 f5 3e 6d bb e6 7b 91 bc 3f a5 27 3d 56 12 48 3d
       -0.0036200855 -0.017759275 0.040929075 0.04884561
0003e0 5e a3 0f bd b5 89 30 bd 4f 66 58 bd 44 09 03 bd
       -0.03506791 -0.043100078 -0.052831944 -0.03199126
0003f0 21 e4 63 3c 2a 21 03 bc ca 2b 70 bb c4 28 c8 bc
       0.013909371 -0.008003512 -0.0036647194 -0.024433501

conv1.bias f4 [128]
000000 4f 54 93 bd 87 27 7c bd c4 01 ec bc 55 df 56 bc
       -0.07193815 -0.061561134 -0.028809436 -0.01311477
000010 2f 95 36 3d f8 63 73 3e 82 40 60 3d 26 56 c7 bc
       0.044575866 0.23768604 0.05474902 -0.024333071
000020 43 58 46 bd b7 9c 6c bb fd eb 86 bc 4a 2c fa bc
       -0.048424017 -0.0036104152 -0.01646995 -0.030538697
000030 ba de b3 bc e6 c7 40 3d b7 b6 26 bc 6a 95 77 3d
       -0.02195679 0.047065638 -0.010175399 0.060445227
000040 93 5b 9e 3d 62 fc e5 bc 54 7e f2 bb 64 19 ce 3d
       0.0773231 -0.028074447 -0.0074003134 0.100634366
000050 47 0c b9 bc ad eb 38 3e 65 fd 87 3d f1 b1 cf bc
       -0.022588862 0.18058653 0.06640128 -0.025353404
000060 90 da 81 bc ea 89 76 bb ca 71 88 bd 02 ea cb ba
       -0.015851289 -0.0037618824 -0.066623285 -0.0015557411
000070 43 3a 54 3e 2c 33 18 be 12 79 12 3d a3 3a 3f bd
       0.2072535 -0.1486327 0.035759993 -0.04668678
000080 c3 d0 74 3c e8 a2 6b 3c ac c8 14 bd cf 7c bd bc
       0.014942351 0.014382102 -0.036324188 -0.023130802
000090 1b 03 b3 3e ea 0c 16 bc 58 5b 00 bd 02 9a 92 bc
       0.34963307 -0.009158352 -0.031337112 -0.017895702
0000a0 d5 1b b2 3c 0f 3a f5 bb 8c d1 2d bd 2a 19 f9 bc
       0.021741787 -0.0074837278 -0.042436168 -0.030407507
0000b0 ce 7a 01 3e c5 4b dc bc 52 4c 03 bc e7 a6 09 bd
       0.12644503 -0.026891598 -0.008013802 -0.033606436
0000c0 90 33 a6 bb f8 e1 c7 bc c1 1b 68 bb 1d f8 c5 bc
       -0.0050720647 -0.024399742 -0.0035416933 -0.024166161
0000d0 99 5a 06 bd 09 ce 7e bd a4 0e 7e bd f8 2c 4e bc
       -0.032801244 -0.06220821 -0.06202568 -0.012583964
0000e0 3f 95 eb bc 39 25 01 bc 26 75 bc b9 35 10 f0 ba
       -0.02875769 -0.00788241 -0.00035945437 -0.0018315377
0000f0 56 8b 76 bd db c4 e8 bc 6e 66 86 ba 6a 2a 24 bc
       -0.060191475 -0.02841418 -0.0010253915 -0.010019878
000100 90 55 a5 3e ac a2 a4 3a 0f 22 f8 3d 3c 6e 70 bd
       0.32291842 0.0012560687 0.12115871 -0.058698878
000110 4e 46 81 bd 3f 8d ed bb 17 0f 77 bd 87 9b 08 bc
       -0.06312238 -0.007249504 -0.060317125 -0.008337862
000120 64 64 14 bd 69 df 16 bd 9e f4 6b bc b5 1f 1f bd
       -0.036228552 -0.036834154 -0.014401583 -0.038848598
000130 3d a0 9b bc 4a 30 bf 3d 1c 45 23 3d ad 55 d4 be
       -0.018997306 0.09335382 0.03986083 -0.41471615
000140 a1 9f 1a bd 54 f7 a8 3c 75 7b 95 3d 44 f3 be 3d
       -0.03774989 0.020625748 0.07298938 0.09323743
000150 4c 4e 00 bb 94 03 13 bd 7e 49 ad bb fc f7 a9 3d
       -0.0019577919 -0.035892084 -0.005288302 0.082992524
000160 79 00 e5 bc d6 00 9a 3d 78 d8 29 3c 9e 36 d2 bc
       -0.027954327 0.07519691 0.010366552 -0.02566081
000170 1d 0c 7b bc eb 42 49 bd 61 c7 77 bd 42 cb 0a bc
       -0.015322712 -0.049136084 -0.060492877 -0.008471312
000180 5a ed 0b bc df 36 3a bd db 22 29 bb d9 67 9a 3c
       -0.008540476 -0.045462485 -0.002580813 0.018848347
000190 25 de 09 bd c1 d4 43 3d 3c 11 b9 bc ec 00 de bc
       -0.03365912 0.04781032 -0.022591226 -0.027100049
0001a0 e3 e3 11 bb f1 b1 f2 3b ed ec 5b 3d c4 39 41 3e
       -0.0022261075 0.007406466 0.053692747 0.18869692
0001b0 6c 4d 0e bb c1 fa 6b bd 56 1b b7 ba bf 59 77 3d
       -0.0021713628 -0.057612184 -0.0013969939 0.060388323
0001c0 54 30 85 3d 43 94 94 bd bb 7a fc bb 96 db 7d 3c
       0.065033585 -0.07254841 -0.0077050603 0.015494248
0001d0 d5 96 a5 bc 65 d0 50 bd 5a 4d 71 3d b7 ae dc 3e
       -0.020213524 -0.05097999 0.05891166 0.43102047
0001e0 3a f7 19 3f 3b a1 62 bd f2 d9 8a bd ef 68 34 3e
       0.6014286 -0.055329543 -0.06779851 0.17618154
0001f0 06 4e 57 bc c1 82 d0 bb 9a da 93 bd 93 76 f1 bc
       -0.013141161 -0.0063632433 -0.07219429 -0.029475486

conv2.weight f4 [64, 128, 1, 1]
000000 e5 a6 1f bd 5b b7 2d 3d 55 41 79 bd b7 44 f2 bb
       -0.038977522 0.04241119 -0.06085332 -0.0073934454
000010 20 61 98 3c 03 61 db bd 1c 08 2e 3d 7e 4b 79 3c
       0.018601 -0.10711863 0.042488202 0.015215753
000020 fb 3c d1 bc 0e 6d a8 bd 69 fb b8 3b 7e 80 40 bd
       -0.025541773 -0.082239255 0.005645205 -0.04699754
000030 8a c7 a3 3d dc 2f 8b 3c 7e bd bd 3c 0f 27 c5 bd
       0.079970434 0.016990595 0.023161646 -0.096265905
000040 7f 1e a2 3d a3 24 b5 3d 49 70 ac 3c 24 28 20 3d
       0.07915973 0.088448785 0.021049635 0.03910078
000050 f9 78 21 bd 90 b4 50 bd 61 d5 c5 bd d2 0b 2c bd
       -0.03942201 -0.050953448 -0.096598394 -0.04200346
000060 4d 2b 8e 3c 9a 12 15 bd c8 a0 3d 3d ed 50 02 bd
       0.017354632 -0.036394693 0.04629591 -0.031815458
000070 02 41 b6 bc a1 5c 8c 3d 1e 55 89 bd 1c 07 6d bb
       -0.022247795 0.06853605 -0.06705688 -0.0036167568
000080 a5 16 88 bb 9c 86 c7 bd 4a fd e7 3c b9 4c e7 3c
       -0.00415309 -0.097424716 0.02831902 0.028234826
000090 e3 b3 c2 bd a0 e0 92 3d a5 92 45 3d 65 bc 86 3d
       -0.09506967 0.0717175 0.048235554 0.06578902
0000a0 30 6b 0f be d0 6e a0 3d 4c a0 55 bd 44 ab 6f bd
       -0.14005733 0.07833636 -0.052154824 -0.05851294
0000b0 73 96 d3 bd 5d dd 19 bd b7 d8 94 3d 97 78 26 3c
       -0.1033143 -0.037564624 0.072678976 0.010160587
0000c0 62 7c 7f bd a0 ce 73 bd 78 fb 8a bd 92 b7 ba 3b
       -0.06237448 -0.059523225 -0.06786245 0.005698153
0000d0 f6 0f 74 3d e0 14 79 3d 3e 57 6d 3c fc 24 7f bb
       0.059585534 0.060810924 0.014486132 -0.0038931957
0000e0 44 f6 6d 3d 2b 88 08 bd 28 70 e8 bd 49 d1 50 bd
       0.058096185 -0.033332985 -0.11349517 -0.05098084
0000f0 a6 40 2a 3d 68 4c 9b bc f9 c2 01 bc e8 5e 77 3d
       0.04156556 -0.018957332 -0.00792002 0.060393244
000100 c4 5b b3 bc f5 1b 95 3d 57 3d d7 bc ba 59 16 bd
       -0.021894343 0.07280723 -0.026274366 -0.036706664
000110 42 41 5c bd 74 07 05 be e0 70 ac bc 92 da 3e 3d
       -0.053773172 -0.12991124 -0.021049917 0.046595164
000120 9e 5d b0 b9 29 c8 f0 bc d3 51 ad bd a0 75 93 bd
       -0.00033639086 -0.029392319 -0.08462872 -0.072001696
000130 55 0b 5d bd d5 84 88 b9 cb 53 97 bd f5 8c b2 3d
       -0.053965885 -0.0002603891 -0.07389029 0.08718292
000140 a3 86 b9 3d 14 57 c4 3c 8f 63 1c bd b6 74 8d ba
       0.09058883 0.023967303 -0.038180884 -0.0010792229
000150 37 1d b4 bd bb 23 29 bd 07 61 b3 3d 2a 5f 50 3d
       -0.08794635 -0.04129384 0.08758741 0.050872006
000160 b1 ba af bd ee ba a5 bd 43 16 89 bd 72 94 a2 3d
       -0.085805304 -0.08092295 -0.06693699 0.0793847
000170 ba 71 d0 bc 5c 0c 0b bd 15 af 3c bd a6 18 db 3c
       -0.025444854 -0.033947334 -0.04606541 0.026745152
000180 eb ec 63 3d 32 68 1c bc 22 0d 2c 3d cd 02 00 bd
       0.055645864 -0.0095463265 0.042004712 -0.03125267
000190 ef b7 de 3c a4 c8 d4 bc 83 cc 09 bd 73 53 41 3d
       0.027187316 -0.02597458 -0.033642303 0.047198724
0001a0 e5 24 a5 bd 16 43 1a 3d 38 d9 db bd ff 51 21 3a
       -0.08063678 0.037661634 -0.107347906 0.0006153881
0001b0 a4 73 a7 3d 6c 83 90 3c 03 59 62 bd 91 34 82 bd
       0.081763536 0.017640792 -0.05526067 -0.063576825
0001c0 75 06 49 bd da a6 bd bc 95 6e 7e bd 95 ae 8a bd
       -0.049078424 -0.02315085 -0.062117178 -0.0677158
0001d0 f8 37 bb bc 54 f7 9b 3c ce 49 cb bd 7f 9a ff bc
       -0.022853836 0.019038834 -0.099261865 -0.0312016
0001e0 3b 48 a3 3b 4f 59 3d 3c 7c 88 e5 3c 1e b0 d5 bc
       0.004982976 0.011556937 0.028019182 -0.026084956
0001f0 c0 22 5a bc eb b5 7f ba 5f 48 5c bc 51 39 9b 3d
       -0.013313949 -0.0009754586 -0.013444989 0.075792916
000200 b2 46 00 3c 2a bf 43 bd be fc 92 bd 83 45 06 3d
       0.007829355 -0.04778973 -0.07177113 0.032781135
000210 16 8a a0 3d 87 95 80 bc 68 a1 2e bd ff d2 72 ba
       0.07838838 -0.0156963 -0.042634398 -0.0009263008
000220 a8 c2 9a 3c 2e 72 65 bd 46 4f de 3c 55 42 ac bd
       0.018891647 -0.056017093 0.02713741 -0.08411089
000230 80 73 b5 bd ba 28 72 bd cf 0a a0 3d d9 d0 89 bb
       -0.088599205 -0.05912087 0.078145616 -0.004205805
000240 fb 80 83 bd 48 75 e0 bd 47 c3 e1 bd 17 29 02 be
       -0.064210854 -0.109598696 -0.11023574 -0.12710987
000250 d6 5b 0c bd 08 4a 3d bd a0 0c af 3e 07 65 53 bd
       -0.03426727 -0.04621318 0.3418932 -0.05161002
000260 a2 67 46 3c 9a 5c 8e 3d be f1 52 bd 03 6a fa 3d
       0.012109669 0.06951256 -0.051500075 0.122272514
000270 13 76 49 3b 15 d8 b2 bd fc c6 8d 3c b1 be 4a 3d
       0.0030740544 -0.087326206 0.017306797 0.049498264
000280 e3 d9 ac 3d 29 03 13 3e dc cf fe bd 60 92 a4 3d
       0.08439996 0.14356674 -0.1244199 0.08035731
000290 67 13 32 be a0 a7 13 bc 43 9f a2 3d b2 06 c0 bd
       -0.17390214 -0.009012133 0.07940533 -0.09376277
0002a0 0c 9a 49 be de 10 4d bd 8a 1d 92 3d 9a 99 b5 bc
       -0.1968767 -0.050064914 0.071345404 -0.02216797
0002b0 12 16 89 3d ed 41 ce 3c e3 de 9c 3e ff 11 ff 3c
       0.06693663 0.02517792 0.306388 0.03113651
0002c0 17 5c 83 bd ed 2b b7 bd 09 31 ff 3c cb 55 04 be
       -0.06414049 -0.08943925 0.031151311 -0.12923352
0002d0 ff 92 24 3d 81 bd 95 3d ea 45 6a 3d c9 46 67 3c
       0.04017925 0.073115356 0.05719558 0.014115998
0002e0 5c da 76 3d be 27 86 bd 7f 05 39 be a9 9d 7f bd
       0.060266837 -0.06550549 -0.18068503 -0.062406216
0002f0 1c 09 42 bd 89 f6 44 3d 5d df a8 3c 16 33 ab bc
       -0.04737197 0.048086677 0.02061432 -0.020898383
000300 a2 a4 d3 3b 4f ac fb 3d 04 db 76 bd 70 17 7a bd
       0.0064588347 0.12288725 -0.060267463 -0.061057508
000310 18 14 c9 bd 66 83 1c bf 2e 9c 42 3d 33 2d d6 bc
       -0.09818286 -0.61138 0.047512226 -0.0261446
000320 81 b7 4b 3d e8 d2 66 bd 72 5f 90 3c 5b 24 22 3c
       0.04973555 -0.05635348 0.017623637 0.009896363
000330 a2 cd c6 3b bd c8 2f bc 5a 60 b8 bd d3 8d 09 bd
       0.006066994 -0.010729012 -0.090027526 -0.03358252
000340 ba a5 8c 3c b8 f0 3b bc f1 8b 24 bb 80 72 e2 bd
       0.017168868 -0.011470966 -0.0025107826 -0.110569954
000350 bb 5d e2 3d 2c 6b 12 3a 99 a4 73 bc 71 53 8f bc
       0.11053034 0.0005585428 -0.014870786 -0.017495843
000360 6d 11 ba 3c 16 a3 8a bc 25 86 14 3e a8 69 d6 bc
       0.022713387 -0.016923469 0.14504297 -0.026173428
000370 bc 6c 01 3c d7 9e 5a 3d 7c e5 31 bc 53 e0 3c 3d
       0.007899459 0.053374138 -0.010857936 0.04611237
000380 9e 45 95 3d f3 f5 b5 bd 00 69 92 bb 50 61 5b 3c
       0.07288669 -0.08884802 -0.0044680834 0.0133899
000390 47 52 1d 3e b0 df 68 3c 96 62 1d bc 33 c4 ff bc
       0.15363418 0.0142134875 -0.009606024 -0.031221485
0003a0 41 7e 96 bd 0b a4 c4 3c 88 10 79 bd a2 2b a5 bc
       -0.073483 0.024004003 -0.06080678 -0.020162407
0003b0 86 b0 0a 3c d1 81 0b 3d a7 26 21 bc c4 9b f2 b9
       0.008464938 0.03405935 -0.009835876 -0.0004627389
0003c0 80 91 16 bd b9 01 6f 3d 68 b5 14 bd 9c 6e 5d 3e
       -0.036759853 0.058351252 -0.036305815 0.21624225
0003d0 f1 17 41 bd 68 6f f9 bc 21 c0 10 3e ad 4c 34 3c
       -0.047141973 -0.03044863 0.14135791 0.011004609
0003e0 55 45 f0 b9 e6 a4 71 3d 28 3f dd bc fc 2a 2c 3a
       -0.00045828024 0.05899515 -0.027007654 0.00065676845
0003f0 08 bd e5 3c f4 1e ec 3c 0e 99 67 3d e2 17 e3 3b
       0.028044239 0.028823353 0.05654245 0.0069303373

conv2.bias f4 [64]
000000 ac 47 ea bd 15 ba 06 3b 0e 9e 44 3c a2 04 ad bb
       -0.114394516 0.002055769 0.012000574 -0.0052800933
000010 35 f5 a5 bd 46 92 4d bd 05 80 66 3c d1 b7 60 bd
       -0.0810341 -0.050188325 0.014068608 -0.0548628
000020 01 70 ff bd 6e fd b0 bc c3 eb 04 bd 4f 20 cd bb
       -0.12472535 -0.02160522 -0.032451402 -0.006259955
000030 35 e9 6c bd fc 01 00 bc 6c 22 3e bd 09 30 f8 bc
       -0.05783959 -0.007812973 -0.046419546 -0.030296342
000040 0d c1 ad bb 66 e5 be bd 0e 2f 8f bb 68 00 f6 ba
       -0.0053025545 -0.09321098 -0.004369623 -0.0018768432
000050 1a fa e8 bc ab 48 0a be 01 02 dd bd 8d 5e 0f bb
       -0.02843957 -0.13504283 -0.10791398 -0.0021876425
000060 bc 0a c3 bc 37 c3 92 3b c4 87 38 bd d8 a0 6c bc
       -0.02380883 0.004478838 -0.04505135 -0.014442645
000070 ac 0a f6 bc 6a f2 b5 bc b2 bd 7c bb 94 9b e9 bd
       -0.030034386 -0.022210319 -0.0038565216 -0.11406627
000080 55 87 ed bd 0c bf 1c bd c1 29 58 bd 99 81 b2 bd
       -0.11598078 -0.038268134 -0.052774195 -0.08716125
000090 83 82 2b 3c e1 d4 6d bd 89 c2 99 bb c2 a0 9a 3c
       0.010468128 -0.058064345 -0.00469238 0.018875483
0000a0 86 ee 7d bc 4b 06 0f bc bf 96 73 bc aa e2 bf 3b
       -0.015498763 -0.008729528 -0.014867484 0.005855878
0000b0 99 e3 8e bd aa 6b 7a bd 3d f4 bf bb df a5 00 bd
       -0.069770046 -0.061137833 -0.005857973 -0.031408187
0000c0 34 9b ae bd 5f 19 80 ba 3a 2b e5 3b 19 7c 1e bc
       -0.085256964 -0.0009773186 0.0069936784 -0.009673142
0000d0 3f 70 03 3b a0 a5 9b bd 36 3f 1f bc 7c f5 02 bc
       0.0020055918 -0.0759995 -0.0097196605 -0.007993098
0000e0 cd e4 80 bd a2 7d ef bd 5d c0 88 bd af 42 18 bd
       -0.0629364 -0.116938844 -0.066773154 -0.03717297
0000f0 11 4b ef bd 4d ed de bd 03 04 bf bd f6 77 e9 bd
       -0.1168424 -0.10885105 -0.09326937 -0.11399834

conv3.weight f4 [3, 64, 5, 5]
000000 cd 53 50 3b 57 db 2e bd 6d 32 96 bc e9 8c fa bc
       0.003178823 -0.042689648 -0.018334592 -0.03058477
000010 51 aa 81 bc 9f bc 23 3d ca ee d1 bc fa ad 1b bd
       -0.015828284 0.039974805 -0.025626559 -0.038007714
000020 52 26 08 bd 5d 27 c4 3c 2a 1f c9 3b 7c 3c 07 3d
       -0.03323967 0.023944551 0.0061377482 0.033016667
000030 52 97 f0 3c 70 70 37 bd dc 42 31 3b 1b 16 58 bc
       0.02936903 -0.044784963 0.0027047908 -0.013188864
000040 58 9a b1 3c 41 92 3c bc 63 67 bc bc 59 0a 14 3d
       0.021680042 -0.011509479 -0.022998517 0.03614268
000050 fd 16 a9 3c 2b 31 34 3c 58 13 8f 3b 70 24 43 bc
       0.020640844 0.010998051 0.0043663196 -0.011910543
000060 7b c7 84 3c 8f 63 a6 bd cb f4 67 3d e9 17 cf bc
       0.016208401 -0.08124458 0.056629937 -0.025279956
000070 2a 4f 45 be 7f a9 8e bd 24 6d 77 be ca 83 fb 3d
       -0.1926848 -0.069659226 -0.24162728 0.12280996
000080 c4 8c ab 3e ee 4a 0a 3c 10 d0 eb 3c 0d 2c 8f be
       0.33505833 0.008440716 0.028785735 -0.27963296
000090 a9 77 98 3d fc de 6a 3e 25 75 a6 bd d9 29 6d bd
       0.07444698 0.22936624 -0.08127812 -0.057901237
0000a0 23 1b b6 bd ce 5e 57 3d 05 bd 08 3a 83 09 08 be
       -0.08891895 0.052580647 0.00052161544 -0.13284878
0000b0 88 be ac 3c fe 3c b6 3d bb 61 e0 3c f5 eb 0c be
       0.021086946 0.08898352 0.027390352 -0.13761885
0000c0 5b ca 37 bd a0 26 ef 3c 47 48 56 3d 60 83 43 3c
       -0.044870716 0.029193223 0.052315023 0.011933178
0000d0 34 16 ec bd 48 f8 74 3d 55 c6 0f 3e e6 f1 ac bc
       -0.115276724 0.059807092 0.14040501 -0.02111144
0000e0 cd c5 8a 3d 06 c9 0c be dc 50 49 be 17 27 2a 3e
       0.06776009 -0.1374856 -0.19659752 0.16616474
0000f0 b9 b1 0a be fc 14 1e 3e ad 7d 89 3d 16 c6 b1 be
       -0.13544358 0.15437692 0.06713424 -0.3472144
000100 42 e5 06 be 55 02 6d be 2f 2f 87 3d 7c ac a2 3e
       -0.13173392 -0.23145421 0.066007964 0.3177222
000110 cb 51 cf bc 44 fe 23 3d 9e a5 b0 3c ef 0d 5c bd
       -0.025307557 0.04003741 0.021563347 -0.053724226
000120 63 26 e1 3d 26 e3 c8 3c 35 6a 80 3d 8a e3 ce 3e
       0.1099365 0.024522375 0.062702574 0.40407974
000130 68 05 b0 3d 00 34 26 bd c7 f4 b1 3c e5 8d 5e 3c
       0.08594781 -0.040576935 0.021723164 0.013583635
000140 6b 11 86 3e a7 28 65 be 62 b2 40 be 63 85 77 bd
       0.26185164 -0.22378789 -0.18818048 -0.060429942
000150 99 ed 6a bc 36 22 30 3e 64 50 cf bd 73 d4 29 3d
       -0.014338874 0.1720055 -0.10122755 0.041462373
000160 48 31 81 3b 7f 71 76 3b 4a d2 e9 3d 55 58 6c bb
       0.0039426424 0.003760427 0.114170626 -0.0036063392
000170 8e b2 2b 3a 86 20 42 bd 4e 96 7c 3c 7a 8c 59 3d
       0.0006549739 -0.047394298 0.015416695 0.053112485
000180 be 50 7f bb c6 77 86 bc 8a 7a e7 bb 83 74 85 3d
       -0.0038958038 -0.016414534 -0.0070641683 0.065163635
000190 6a c7 6a bc 8e 94 89 3c d6 33 df 3c 18 95 2d bd
       -0.014329771 0.01679447 0.027246397 -0.042378515
0001a0 e0 b1 74 bd 2f fe 3b bd d5 00 1c bd 06 b1 eb bc
       -0.059739947 -0.045896705 -0.03808673 -0.028770935
0001b0 b0 77 c9 bc 8b 2e 8a bd 5b 5f 58 3d bd 39 8c 3c
       -0.024593204 -0.067471586 0.052825313 0.017117376
0001c0 ea 3b a9 3c 4c d5 ca 3c 95 a8 d3 3c 3b 47 4d bd
       0.020658452 0.024759911 0.025837222 -0.05011676
0001d0 15 72 2a bd 5b 2f 8a bc b0 5a 3b 3a e6 76 21 bd
       -0.041612703 -0.016868284 0.00071469974 -0.03942003
0001e0 9c c1 45 bd 23 4b 32 bc bc 25 46 bd 06 f9 fe bc
       -0.048280343 -0.010882172 -0.04837583 -0.031124603
0001f0 62 55 46 bd cd 4c f3 3c 07 a0 e5 bb 24 f9 e9 bb
       -0.04842127 0.029699707 -0.007007602 -0.0071402956
000200 83 72 c4 3b e7 86 e2 b9 dd 92 d4 3c de 9b a6 3c
       0.005995096 -0.0004320659 0.025948936 0.020337995
000210 df 70 09 3d e5 d3 ea ba ff cc 94 bb 43 51 8b 3c
       0.033554908 -0.0017915933 -0.004541039 0.017006522
000220 e8 7b 6e 3c fb ad 36 3d 5b 76 10 3d 84 36 21 3c
       0.014555909 0.044599514 0.035269123 0.009839658
000230 d4 ae 06 3d 25 16 f6 3c 06 f6 f0 3c 9c 7e 55 3d
       0.032881573 0.030039856 0.029414188 0.052122697
000240 bb cf 0f 3c 9e 2f c3 3c 7d 94 eb 3c 6a b0 19 3d
       0.008777554 0.023826417 0.028757328 0.037521757
000250 53 83 a3 3c e1 3c 32 3d 80 21 82 3d d7 d0 80 3d
       0.019960081 0.04351509 0.06354046 0.06289833
000260 62 9d 80 3c 71 5c 81 bd 8c 62 7a bd 2e 81 13 3e
       0.015700046 -0.0631646 -0.061129138 0.14404747
000270 4c b0 21 3e 1c e1 dc 3d f4 aa 61 3d 6f b7 a8 bc
       0.15789908 0.10785124 0.055094674 -0.02059528
000280 23 6f 43 3d e5 21 5c 3d 0f 1b 1f bd de 19 85 bd
       0.04771341 0.05374326 -0.038844164 -0.064990744
000290 63 35 00 be 06 5e 64 3d 99 db 32 3d b0 37 c4 bd
       -0.12520365 0.05575373 0.043666456 -0.09580934
0002a0 cb 62 48 3d 49 8c 21 3c 3f 4b 7c bd a5 c5 78 bd
       0.04892234 0.009860107 -0.061595198 -0.060735364
0002b0 a0 5f 3d be 3e 70 7d b9 78 3a ee 3c 30 f1 d7 bd
       -0.1849351 -0.00024169774 0.029080614 -0.1054405
0002c0 c4 e3 25 bd 6d 6e 38 3c b1 ab 12 3d 06 db b1 bb
       -0.040500417 0.011256796 0.03580827 -0.005427721
0002d0 00 89 6b bd bc 3f c0 bc ee 6e 1b 3c 54 f2 86 bc
       -0.0575037 -0.02346789 0.009486897 -0.016472973
0002e0 21 ad 42 3c a1 30 52 3c 8b fa c9 3c d8 8e 10 bd
       0.011882097 0.012828977 0.024655601 -0.035292476
0002f0 78 19 4c bd 7d 44 bf 3b f2 36 87 3d f0 e3 39 3d
       -0.049828976 0.005837022 0.06602277 0.045383394
000300 c4 81 7a bd 54 c6 b3 bc 8e ab 04 bc 07 8c 63 3c
       -0.06115891 -0.021945156 -0.008097542 0.013888366
000310 41 66 ab bb b8 aa 85 bd a6 e3 18 3c 8d da 29 bc
       -0.0052306955 -0.06526703 0.009331619 -0.010367048
000320 4d 54 b6 bc 82 27 b4 3c 71 70 bb bd b2 92 41 bd
       -0.022256995 0.021991495 -0.09152306 -0.04725904
000330 27 73 83 3d 9e 64 b4 bd ba 89 8e bc 5d 4f 72 bd
       0.06418448 -0.08808254 -0.017399658 -0.059157718
000340 d3 12 b6 bc 91 28 3f 3d f3 26 a1 bc ed 2d b3 bc
       -0.022225773 0.046669547 -0.019671893 -0.021872485
000350 f9 5c 88 3c 8e e9 9b bc 26 10 79 3c 60 5e 08 3c
       0.016645895 -0.019032266 0.015201604 0.008323282
000360 c3 b7 08 bd f5 4b 79 3c 59 42 a1 bc 32 12 ef 3c
       -0.033378374 0.0152158635 -0.019684957 0.02918348
000370 a1 52 67 3c 76 be 23 3d 60 a5 65 bc a8 fd d0 3c
       0.014118821 0.03997656 -0.014016479 0.025511578
000380 24 c8 5d bd 8a c3 29 bd 0b 3f 92 3b c1 c0 b7 bc
       -0.054145947 -0.041446246 0.0044630817 -0.02243078
000390 b7 5e 5e bb f7 da 9d bc ae d1 00 3c 36 8d 2c bb
       -0.0033930966 -0.01926945 0.0078624915 -0.0026329285
0003a0 c1 45 38 ba f1 cb fd ba 5c 19 b8 bc 65 b3 f9 bc
       -0.0007029437 -0.0019363147 -0.02247303 -0.03048105
0003b0 7d 8b 35 bc bb 26 46 bc 5c 1e 3d bd fb 33 09 bc
       -0.01108062 -0.012094195 -0.04617153 -0.0083742095
0003c0 99 fa 99 bb 36 dc d5 3b dd 2f ea bc 8e 3d 05 bc
       -0.004699063 0.0065264953 -0.028587276 -0.008132352
0003d0 c3 a1 b5 bc 82 b2 9a 3c e4 a9 09 3c 2f 73 b5 3c
       -0.02217186 0.018883947 0.0084023215 0.02214965
0003e0 65 bd 05 3a 57 e6 c6 bc a2 b7 c5 3d 29 28 9e 3d
       0.00051017693 -0.024279756 0.09654166 0.07722504
0003f0 b2 71 61 bd 88 76 1e be f2 02 44 be 90 c1 79 bc
       -0.05504007 -0.15474904 -0.19141749 -0.015243903

conv3.bias f4 [3]
000000 8b f7 43 bb ea 4f 30 3b 2d 6c e8 ba
       -0.0029902186 0.0026903101 -0.0017732434

exp_avg f4 [128, 3, 9, 9]
000000 40 f3 88 07 c3 a6 31 08 93 2e c1 b5 ad 0e c5 b5
       2.0605975e-34 5.3460027e-34 -1.4393175e-06 -1.4681915e-06
000010 a1 4b eb b5 27 a3 05 b6 32 21 f5 b5 bc ea b3 b5
       -1.7530875e-06 -1.9913512e-06 -1.8263584e-06 -1.3404856e-06
000020 12 31 56 b5 71 3a 8e 07 98 56 41 08 8b 11 08 35
       -7.979262e-07 2.1400134e-34 5.8180615e-34 5.0689476e-07
000030 13 aa d7 34 b3 bc b1 b3 0a 15 15 b5 31 6c 06 b5
       4.0170616e-07 -8.276529e-08 -5.553744e-07 -5.007633e-07
000040 99 ed 1d b4 cd ac 16 34 2d f5 63 07 93 c6 4c 08
       -1.4708202e-07 1.4032703e-07 1.7149633e-34 6.162244e-34
000050 ad 98 a0 b5 60 a8 b6 b5 5a d4 02 b6 35 06 35 b6
       -1.1965363e-06 -1.360906e-06 -1.9495114e-06 -2.6974715e-06
000060 ea 47 4f b6 76 7f 4f b6 51 52 49 b6 2d f5 63 07
       -3.0887263e-06 -3.0919596e-06 -2.9999248e-06 1.7149633e-34
000070 51 bd 4c 08 e4 88 26 b5 ed 5b 5e b5 81 72 bd b5
       6.1611557e-34 -6.203902e-07 -8.2835214e-07 -1.4114922e-06
000080 63 8b 0f b6 73 e1 34 b6 25 07 4a b6 77 ab 4f b6
       -2.1389794e-06 -2.695332e-06 -3.0104504e-06 -3.094521e-06
000090 2d f5 63 07 88 f3 3c 08 e9 2e 60 b5 f0 f8 90 b5
       1.7149633e-34 5.686046e-34 -8.3514766e-07 -1.0801286e-06
0000a0 40 24 ca b5 95 e8 00 b6 e9 64 1a b6 27 01 33 b6
       -1.5060723e-06 -1.9208867e-06 -2.3006526e-06 -2.667375e-06
0000b0 c5 73 3a b6 2d f5 63 07 2c e6 5e 08 22 77 fb b5
       -2.7783547e-06 1.7149633e-34 6.707626e-34 -1.873563e-06
0000c0 1b f3 0a b6 1d de 13 b6 65 17 0c b6 08 5c 0e b6
       -2.0705108e-06 -2.2033994e-06 -2.0875243e-06 -2.1213218e-06
0000d0 01 c7 16 b6 bf 77 13 b6 b1 56 8f 07 2d 18 87 08
       -2.2467577e-06 -2.1974408e-06 2.1567201e-34 8.130701e-34
0000e0 ae 44 57 b6 f7 ff 5d b6 ab 77 4f b6 9f 0e 27 b6
       -3.2077473e-06 -3.3080557e-06 -3.091506e-06 -2.489345e-06
0000f0 db 0d 14 b6 32 44 07 b6 c7 c7 ed b5 2d 4d c0 07
       -2.2061784e-06 -2.0156263e-06 -1.7716019e-06 2.893431e-34
000100 ed f9 9f 08 b5 9d bb b6 a3 7d bd b6 b5 1c af b6
       9.628222e-34 -5.591394e-06 -5.647265e-06 -5.2187484e-06
000110 87 19 95 b6 37 49 82 b6 5f 2a 63 b6 a5 96 44 b6
       -4.443518e-06 -3.8828252e-06 -3.38503e-06 -2.9293963e-06
000120 9a e8 da 07 f5 70 c4 08 eb 6e 09 b7 88 7f 09 b7
       3.2937705e-34 1.1822877e-33 -8.191661e-06 -8.1955295e-06
000130 ce ec 03 b7 bd 00 f4 b6 82 2c e1 b6 55 c6 cd b6
       -7.863344e-06 -7.2718526e-06 -6.710704e-06 -6.132565e-06
000140 36 f5 b8 b6 47 ff ed 07 8a d8 a6 08 c9 88 d6 b5
       -5.5121736e-06 3.5809835e-34 1.004167e-33 -1.5984052e-06
000150 67 0f e0 b5 7e 7b 04 b6 47 ed 10 b6 94 bc f9 b5
       -1.6693783e-06 -1.9741415e-06 -2.1595786e-06 -1.8606829e-06
000160 f3 7d 9c b5 f1 de 1b b5 f8 fd fb 07 b6 01 ac 08
       -1.1659562e-06 -5.806642e-07 3.7915552e-34 1.0352276e-33
000170 6e f7 20 b5 36 5a 36 b5 4c 79 98 b5 9f 8f c0 b5
       -5.99647e-07 -6.793156e-07 -1.1360185e-06 -1.4346914e-06
000180 4f a1 9a b5 3b 6e 11 b5 6e 76 63 b4 85 1a 00 08
       -1.1520841e-06 -5.4177116e-07 -2.1184107e-07 3.8549772e-34
000190 7b c8 a2 08 48 9e e5 b5 5b 62 f5 b5 a9 0d 23 b6
       9.797153e-34 -1.7107895e-06 -1.8282548e-06 -2.4296844e-06
0001a0 b4 9b 50 b6 5f ea 61 b6 ad c2 60 b6 3c c6 61 b6
       -3.1085046e-06 -3.3664035e-06 -3.3491917e-06 -3.3643e-06
0001b0 2d f5 e3 07 43 53 9b 08 a5 76 a0 b5 89 07 b5 b5
       3.4299265e-34 9.348298e-34 -1.1955459e-06 -1.3487744e-06
0001c0 a5 cd fe b5 b7 14 2f b6 f6 4d 52 b6 79 d6 6a b6
       -1.8984325e-06 -2.608909e-06 -3.1337818e-06 -3.4993557e-06
0001d0 27 47 76 b6 2d f5 e3 07 da 5d 9e 08 6c 1f af b5
       -3.6698273e-06 3.4299265e-34 9.5313435e-34 -1.3047661e-06
0001e0 e0 34 cd b5 8f 3d 07 b6 5a ca 26 b6 59 da 4b b6
       -1.5289079e-06 -2.01524e-06 -2.4853712e-06 -3.0376452e-06
0001f0 4a c2 6a b6 5b 33 72 b6 39 05 e5 07 25 f3 ab 08
       -3.4981808e-06 -3.6090703e-06 3.445916e-34 1.0348851e-33
000200 df 47 17 b6 bc ac 28 b6 a6 a9 37 b6 f1 e5 37 b6
       -2.2542588e-06 -2.5134495e-06 -2.7367873e-06 -2.7402968e-06
000210 01 8e 47 b6 f2 fb 57 b6 33 19 4e b6 ad 30 01 08
       -2.9735968e-06 -3.2184148e-06 -3.071106e-06 3.8876744e-34
000220 dc e6 cd 08 8f 55 6c b6 30 c0 79 b6 1a 33 6e b6
       1.23922635e-33 -3.5216542e-06 -3.721576e-06 -3.5494509e-06
000230 57 db 51 b6 cd e6 42 b6 2b 88 3c b6 25 10 1f b6
       -3.12711e-06 -2.9042596e-06 -2.8093443e-06 -2.3702244e-06
000240 f3 d1 27 08 00 27 fb 08 04 cf bb b6 e7 ec bc b6
       5.050153e-34 1.5115682e-33 -5.597134e-06 -5.6304157e-06
000250 e5 d9 aa b6 21 89 8f b6 5c d5 72 b6 a5 35 4d b6
       -5.091761e-06 -4.277696e-06 -3.6185002e-06 -3.0578606e-06
000260 94 7a 1d b6 dd 9a 4d 08 3d 93 15 09 80 38 f4 b6
       -2.3466173e-06 6.1871984e-34 1.8004454e-33 -7.278344e-06
000270 e7 82 ef b6 16 e4 d8 b6 26 3f ba b6 e1 d2 9f b6
       -7.137994e-06 -6.4638543e-06 -5.5505834e-06 -4.763119e-06
000280 f4 fd 84 b6 d0 34 52 b6 c6 14 fe 07 f2 25 d4 08
       -3.9634706e-06 -3.132318e-06 3.8229882e-34 1.2768207e-33
000290 8e bd 14 b6 31 9d 16 b6 41 e0 21 b6 6b 06 2a b6
       -2.2164054e-06 -2.244324e-06 -2.4121402e-06 -2.533571e-06
0002a0 1a 96 1a b6 88 5d fc b5 ef 7d d2 b5 69 15 e6 07
       -2.3035159e-06 -1.8802684e-06 -1.5682871e-06 3.4619137e-34
0002b0 78 ea e8 08 ae 5e c0 b5 d4 d5 c4 b5 a3 76 e9 b5
       1.4018115e-33 -1.433267e-06 -1.466537e-06 -1.7394381e-06
0002c0 71 87 03 b6 03 44 e8 b5 41 00 be b5 d7 3d b3 b5
       -1.9599358e-06 -1.7305141e-06 -1.4156177e-06 -1.3354537e-06
0002d0 69 15 e6 07 b0 36 e8 08 4f d8 13 b6 21 39 17 b6
       3.4619137e-34 1.3975849e-33 -2.2030615e-06 -2.2534007e-06
0002e0 78 f0 32 b6 4b f8 55 b6 a6 aa 6a b6 19 59 76 b6
       -2.6664038e-06 -3.1884e-06 -3.4968048e-06 -3.6708718e-06
0002f0 a8 61 81 b6 ad 30 01 08 0f 92 e7 08 db e7 d9 b5
       -3.8558683e-06 3.8876744e-34 1.3937145e-33 -1.6235239e-06
000300 1d 70 eb b5 c4 cb 0f b6 70 f4 36 b6 40 6e 5a b6
       -1.7541494e-06 -2.1427268e-06 -2.7262395e-06 -3.2548705e-06
000310 43 05 76 b6 c6 fe 85 b6 e2 23 19 08 24 45 eb 08
       -3.665992e-06 -3.9933684e-06 4.6083943e-34 1.4159803e-33
000320 aa 4f d8 b5 1c 14 f5 b5 ad a8 14 b6 86 c5 2f b6
       -1.6116439e-06 -1.8259775e-06 -2.21519e-06 -2.6192006e-06
000330 4a 08 54 b6 ea a9 73 b6 ed b9 7f b6 97 71 26 08
       -3.1595287e-06 -3.6308725e-06 -3.8106184e-06 5.008733e-34
000340 0c d5 f4 08 71 7f 22 b6 9d 33 33 b6 fb 1a 44 b6
       1.4735303e-33 -2.4214062e-06 -2.6703121e-06 -2.922198e-06
000350 5b d8 48 b6 37 97 59 b6 1a e8 6b b6 cd ca 67 b6
       -2.9928258e-06 -3.2423538e-06 -3.515283e-06 -3.4539728e-06
000360 9a b2 1e 08 81 47 0e 09 02 f2 77 b6 01 0a 83 b6
       4.775634e-34 1.712625e-33 -3.6946735e-06 -3.905269e-06
000370 76 59 82 b6 48 37 6f b6 e1 6f 68 b6 61 3a 65 b6
       -3.8847165e-06 -3.5645953e-06 -3.4635816e-06 -3.415764e-06
000380 77 48 51 b6 e9 28 35 08 8b 8d 28 09 e2 db e0 b6
       -3.1185607e-06 5.4515796e-34 2.0288818e-33 -6.701318e-06
000390 43 11 e3 b6 d5 50 d8 b6 ac 10 c4 b6 09 08 b4 b6
       -6.7671367e-06 -6.4467117e-06 -5.843196e-06 -5.3653534e-06
0003a0 4c 7e a2 b6 03 35 8f b6 e7 da 55 08 40 6f 40 09
       -4.842679e-06 -4.2679035e-06 6.4354674e-34 2.3163469e-33
0003b0 08 62 0e b7 80 6e 0c b7 1a 30 03 b7 ea cd ec b6
       -8.486684e-06 -8.370378e-06 -7.819408e-06 -7.0573196e-06
0003c0 80 1f d6 b6 46 89 bf b6 e4 a8 a8 b6 04 00 00 00
       -6.381364e-06 -5.7082243e-06 -5.0264516e-06 6e-45
0003d0 04 00 00 00 04 00 00 00 04 00 00 00 04 00 00 00
       6e-45 6e-45 6e-45 6e-45
0003e0 04 00 00 00 04 00 00 00 04 00 00 80 04 00 00 80
       6e-45 6e-45 -6e-45 -6e-45
0003f0 04 00 00 00 04 00 00 00 04 00 00 00 04 00 00 00
       6e-45 6e-45 6e-45 6e-45

exp_avg_sq f4 [128, 3, 9, 9]
000000 11 bb 1c 26 3c 85 07 27 88 9a 9e 30 e4 1d 9d 30
       5.4376895e-16 1.880724e-15 1.1539933e-09 1.1431749e-09
000010 32 27 9a 30 61 79 97 30 55 79 95 30 ab 72 94 30
       1.1216115e-09 1.1021194e-09 1.0875661e-09 1.0801008e-09
000020 ad 70 94 30 36 ef 57 25 ba 08 74 26 06 7b ad 30
       1.0800442e-09 1.8729325e-16 8.466633e-16 1.2622372e-09
000030 14 97 ab 30 f0 f3 a7 30 fd b9 a4 30 cd 70 a2 30
       1.2484827e-09 1.222018e-09 1.1985432e-09 1.1819111e-09
000040 ef 61 a1 30 fc 75 a1 30 0e 29 cd 24 3b 39 0e 26
       1.1742126e-09 1.1747825e-09 8.897413e-17 4.934371e-16
000050 00 f6 c4 30 3e ae c2 30 c5 5b be 30 73 c5 ba 30
       1.4330794e-09 1.416488e-09 1.3850402e-09 1.35894e-09
000060 31 87 b8 30 17 d0 b7 30 a9 28 b8 30 4f 5d 6d 24
       1.3426186e-09 1.3374145e-09 1.3399318e-09 5.147022e-17
000070 29 96 ba 25 60 bb c4 30 53 44 c2 30 32 90 bd 30
       3.236761e-16 1.4314132e-09 1.4134777e-09 1.3792543e-09
000080 b5 d3 b9 30 e6 ee b7 30 cb bd b7 30 83 83 b8 30
       1.3520692e-09 1.3382901e-09 1.3368945e-09 1.342514e-09
000090 67 7b 46 24 f7 48 88 25 f3 b3 c4 30 80 37 c2 30
       4.3038932e-17 2.3641682e-16 1.4312022e-09 1.4131132e-09
0000a0 19 76 bd 30 88 ce b9 30 5a 4e b8 30 2b 85 b8 30
       1.3785125e-09 1.3519221e-09 1.3410031e-09 1.3425611e-09
0000b0 6b 6e b9 30 a2 21 4d 24 28 3a 8c 25 80 d2 c4 30
       1.3491904e-09 4.4480777e-17 2.4325537e-16 1.4320705e-09
0000c0 2c 80 c2 30 b6 fc bd 30 ae a8 ba 30 55 73 b9 30
       1.4151786e-09 1.3823385e-09 1.3581223e-09 1.3493301e-09
0000d0 02 cf b9 30 f0 8b ba 30 34 ab 6d 24 b0 f0 ac 25
       1.3519357e-09 1.3573054e-09 5.1536198e-17 3.000034e-16
0000e0 cd 98 c4 30 58 7e c2 30 76 6c be 30 12 94 bb 30
       1.4304306e-09 1.4151267e-09 1.3855146e-09 1.3648125e-09
0000f0 85 a2 ba 30 29 e7 ba 30 c5 68 bb 30 ad 53 a9 24
       1.3579472e-09 1.3598981e-09 1.3635818e-09 7.343382e-17
000100 e0 6d 01 26 c7 60 ad 30 b0 7c ab 30 0b 15 a8 30
       4.4904774e-16 1.2614912e-09 1.2477326e-09 1.222959e-09
000110 43 db a5 30 94 07 a5 30 34 f1 a4 30 b2 f4 a4 30
       1.2067648e-09 1.2007484e-09 1.2001125e-09 1.2002117e-09
000120 95 87 04 25 9f 33 46 26 34 52 a0 30 92 a0 9e 30
       1.1495112e-16 6.876501e-16 1.1664896e-09 1.154165e-09
000130 88 cb 9b 30 0e 33 9a 30 72 d7 99 30 52 00 9a 30
       1.1335581e-09 1.1219485e-09 1.1193448e-09 1.1205066e-09
000140 b5 07 9a 30 3a ec d9 24 3e 3d ca 25 d1 f3 5a 30
       1.1207165e-09 9.450893e-17 3.5082914e-16 7.965442e-10
000150 9a 40 58 30 45 e1 52 30 0d 1f 4e 30 9f ae 4a 30
       7.8672147e-10 7.671768e-10 7.498649e-10 7.3735323e-10
000160 a9 f7 48 30 fa fc 48 30 25 c5 5e 24 78 26 72 25
       7.311152e-10 7.311908e-10 4.8305564e-17 2.1003188e-16
000170 ac 35 6e 30 60 f9 6a 30 54 bf 64 30 ef 6d 5f 30
       8.666017e-10 8.548309e-10 8.321781e-10 8.128315e-10
000180 e8 c0 5b 30 ef 24 5a 30 80 60 5a 30 ec 36 2d 24
       7.994587e-10 7.9360424e-10 7.944507e-10 3.7559916e-17
000190 22 9f 4b 25 2d 0e 86 30 60 25 84 30 9a 8e 80 30
       1.766136e-16 9.753812e-10 9.614887e-10 9.353756e-10
0001a0 a2 ab 7b 30 67 99 78 30 7a eb 77 30 ff f5 78 30
       9.1557173e-10 9.043987e-10 9.019271e-10 9.0571456e-10
0001b0 10 ba 0d 24 ff d7 31 25 ef 9b 85 30 b3 8c 83 30
       3.0732102e-17 1.5425485e-16 9.721343e-10 9.571494e-10
0001c0 45 87 7f 30 1b 09 7a 30 50 a0 77 30 f7 f6 77 30
       9.296069e-10 9.096241e-10 9.0085894e-10 9.0209035e-10
0001d0 58 b0 79 30 ff 19 1a 24 db 26 1e 25 84 6b 85 30
       9.083627e-10 3.3415446e-17 1.371748e-16 9.707581e-10
0001e0 bd 5d 83 30 7c 30 7f 30 8c e9 79 30 d5 43 78 30
       9.558146e-10 9.283736e-10 9.091756e-10 9.031827e-10
0001f0 a9 65 79 30 f5 53 7b 30 8f dc 28 24 1d 97 2c 25
       9.073014e-10 9.143258e-10 3.6616013e-17 1.4969821e-16
000200 a8 7d 85 30 3f 91 83 30 d2 04 80 30 5e 4c 7b 30
       9.712737e-10 9.572786e-10 9.314596e-10 9.142179e-10
000210 80 2d 7a 30 40 8a 7b 30 1f 3b 7d 30 11 89 3a 24
       9.101413e-10 9.1509733e-10 9.212488e-10 4.044842e-17
000220 63 62 4f 25 41 66 85 30 ad a3 83 30 fb 6c 80 30
       1.7987723e-16 9.706086e-10 9.578024e-10 9.3442e-10
000230 f3 d6 7c 30 23 0b 7c 30 9c 22 7d 30 4a 6d 7e 30
       9.1982527e-10 9.169289e-10 9.2090047e-10 9.255997e-10
000240 5a c8 6c 24 93 22 98 25 61 2e 6c 30 c3 fa 68 30
       5.1344047e-17 2.6391225e-16 8.592221e-10 8.475746e-10
000250 70 71 63 30 1c 10 60 30 a6 bb 5e 30 9e 89 5e 30
       8.2743323e-10 8.151362e-10 8.1029794e-10 8.0958695e-10
000260 33 92 5e 30 6f b6 a8 24 3e ca cf 25 55 76 59 30
       8.097089e-10 7.316744e-17 3.604582e-16 7.91123e-10
000270 6b 84 56 30 9b e7 51 30 38 9d 4f 30 64 fc 4e 30
       7.8040924e-10 7.636289e-10 7.552958e-10 7.530103e-10
000280 be f7 4e 30 b5 d3 4e 30 fc 3c 8a 24 73 e9 6d 25
       7.5294426e-10 7.5243217e-10 5.995127e-17 2.0635569e-16
000290 48 6e 06 30 5d 77 04 30 aa aa 00 30 4e c7 fa 2f
       4.8905635e-10 4.8190946e-10 4.6808657e-10 4.561635e-10
0002a0 ed b2 f5 2f a4 c6 f2 2f f7 9d f2 2f e4 da 3d 24
       4.4692375e-10 4.4160686e-10 4.4131784e-10 4.116825e-17
0002b0 1d 55 55 25 70 46 12 30 28 f5 0f 30 ad b3 0b 30
       1.8503643e-16 5.321459e-10 5.2371485e-10 5.082324e-10
0002c0 48 41 08 30 7f bb 05 30 1b 5c 04 30 fa 6a 04 30
       4.956928e-10 4.8651566e-10 4.815221e-10 4.8173343e-10
0002d0 12 8f 1c 24 0c 13 61 25 c5 3f 24 30 aa 5b 21 30
       3.3948293e-17 1.9522092e-16 5.9753474e-10 5.870172e-10
0002e0 73 56 1c 30 fa c7 18 30 06 be 16 30 e0 15 16 30
       5.687532e-10 5.558146e-10 5.483972e-10 5.460077e-10
0002f0 e4 aa 16 30 2e 59 2c 24 6c be 5a 25 b7 89 23 30
       5.481253e-10 3.7372093e-17 1.8973003e-16 5.949476e-10
000300 1f 6b 20 30 7f 21 1b 30 5b b9 17 30 f5 70 16 30
       5.835989e-10 5.643627e-10 5.5196886e-10 5.4730204e-10
000310 34 cf 16 30 50 0d 18 30 ba 31 54 24 ab 36 5f 25
       5.4864135e-10 5.5316196e-10 4.6012292e-17 1.9360689e-16
000320 0d 05 23 30 d1 e7 1f 30 3e be 1a 30 f5 e3 17 30
       5.930623e-10 5.8173294e-10 5.6295224e-10 5.5257426e-10
000330 24 7d 17 30 ef b8 18 30 8f 60 1a 30 3e 81 54 24
       5.5111316e-10 5.5560084e-10 5.616209e-10 4.6079645e-17
000340 be 48 6a 25 38 e8 22 30 16 10 20 30 b4 72 1b 30
       2.0320911e-16 5.926526e-10 5.823052e-10 5.6551674e-10
000350 ac 5f 19 30 dd a9 19 30 26 39 1b 30 56 d5 1c 30
       5.5797034e-10 5.5902466e-10 5.6469884e-10 5.705564e-10
000360 1c 34 69 24 1e 9b 8e 25 6b db 22 30 80 5f 20 30
       5.056796e-17 2.4738185e-16 5.924707e-10 5.8343375e-10
000370 b1 82 1c 30 5f 25 1b 30 24 c8 1b 30 93 30 1d 30
       5.6938193e-10 5.644178e-10 5.667309e-10 5.7185295e-10
000380 fe 61 1e 30 5d d6 9b 24 c5 40 db 25 b8 60 0f 30
       5.761932e-10 6.758368e-17 3.8034334e-16 5.216054e-10
000390 23 28 0d 30 98 d3 09 30 7e 86 08 30 26 57 08 30
       5.135254e-10 5.0141e-10 4.9667637e-10 4.9600357e-10
0003a0 e2 70 08 30 0f 87 08 30 b7 a0 b3 24 49 66 0a 26
       4.963693e-10 4.966844e-10 7.790114e-17 4.801699e-16
0003b0 71 23 02 30 53 2f 00 30 77 ff fa 2f cb 97 f9 2f
       4.734409e-10 4.663338e-10 4.5656254e-10 4.5400692e-10
0003c0 5f fc f9 2f d7 63 fa 2f 45 56 fa 2f 59 24 7a 12
       4.5472157e-10 4.5545676e-10 4.5536033e-10 7.8930892e-28
0003d0 31 58 86 12 48 1d 8d 12 95 00 8b 12 33 5b 88 12
       8.47833e-28 8.905569e-28 8.772277e-28 8.605289e-28
0003e0 e8 aa 85 12 3b 40 83 12 db c1 72 12 5d 64 64 12
       8.435612e-28 8.283096e-28 7.660068e-28 7.206782e-28
0003f0 02 53 84 12 c4 52 8e 12 f4 9d 95 12 62 93 93 12
       8.350834e-28 8.981863e-28 9.44216e-28 9.313337e-28

exp_avg f4 [128]
000000 1d 20 29 b6 04 00 00 00 04 00 00 00 04 00 00 00
       -2.5201655e-06 6e-45 6e-45 6e-45
000010 05 88 70 36 36 dc 1a b4 76 2f 22 34 04 00 00 00
       3.584196e-06 -1.442248e-07 1.5104692e-07 6e-45
000020 04 00 00 00 04 00 00 00 04 00 00 00 04 00 00 00
       6e-45 6e-45 6e-45 6e-45
000030 04 00 00 00 a1 4d fd b6 04 00 00 00 03 06 98 36
       6e-45 -7.5490248e-06 6e-45 4.530653e-06
000040 86 43 dc 2f c9 ce 05 b7 04 00 00 00 30 6f 1a 38
       4.0065745e-10 -7.975564e-06 6e-45 3.6820013e-05
000050 04 00 00 00 df 0b ec 30 29 53 e7 b5 04 00 00 00
       6e-45 1.7174634e-09 -1.7235044e-06 6e-45
000060 04 00 00 00 5b a7 0c 35 04 00 00 00 73 13 a1 b7
       6e-45 5.23976e-07 6e-45 -1.9201752e-05
000070 74 a9 db b0 b8 1d 9b 33 32 fe 54 2f 04 00 00 00
       -1.5982509e-09 7.223156e-08 1.9371596e-10 6e-45
000080 60 2c 91 37 8c 9b c3 b7 04 00 00 00 b5 74 cf 36
       1.730601e-05 -2.3318244e-05 6e-45 6.182667e-06
000090 72 12 36 b4 04 00 00 00 04 00 00 00 04 00 00 00
       -1.6956781e-07 6e-45 6e-45 6e-45
0000a0 f1 23 b3 35 04 00 00 00 04 00 00 00 04 00 00 00
       1.3347e-06 6e-45 6e-45 6e-45
0000b0 d6 14 9d 36 04 00 00 00 04 00 00 00 04 00 00 00
       4.6813902e-06 6e-45 6e-45 6e-45
0000c0 04 00 00 00 04 00 00 00 04 00 00 00 04 00 00 00
       6e-45 6e-45 6e-45 6e-45
0000d0 04 00 00 00 04 00 00 00 04 00 00 00 04 00 00 00
       6e-45 6e-45 6e-45 6e-45
0000e0 04 00 00 00 04 00 00 00 04 00 00 00 04 00 00 00
       6e-45 6e-45 6e-45 6e-45
0000f0 04 00 00 00 04 00 00 00 04 00 00 00 04 00 00 00
       6e-45 6e-45 6e-45 6e-45
000100 91 ab db b4 8a f0 49 b6 1a 19 98 b5 04 00 00 00
       -4.091676e-07 -3.0091346e-06 -1.1332188e-06 6e-45
000110 04 00 00 00 be 78 1b 37 04 00 00 00 04 00 00 00
       6e-45 9.266832e-06 6e-45 6e-45
000120 04 00 00 00 04 00 00 00 04 00 00 00 04 00 00 00
       6e-45 6e-45 6e-45 6e-45
000130 04 00 00 00 50 6c e5 b5 85 80 21 b6 26 b8 05 37
       6e-45 -1.7093353e-06 -2.4065678e-06 7.970293e-06
000140 04 00 00 00 f9 39 5a b5 26 61 33 ae b4 91 df b6
       6e-45 -8.129569e-07 -4.0786173e-11 -6.66288e-06
000150 3b de 26 b7 ea 24 e9 b7 04 00 00 00 f7 4c 85 2f
       -9.946113e-06 -2.7792954e-05 6e-45 2.4247246e-10
000160 df 40 13 b4 ee 8e d8 b6 dd 4b 78 b7 04 00 00 00
       -1.3714042e-07 -6.453941e-06 -1.4799615e-05 6e-45
000170 04 00 00 00 04 00 00 00 04 00 00 00 04 00 00 00
       6e-45 6e-45 6e-45 6e-45
000180 04 00 00 00 04 00 00 00 04 00 00 00 e1 ec 17 b7
       6e-45 6e-45 6e-45 -9.055454e-06
000190 e3 97 40 b7 08 66 85 36 04 00 00 00 04 00 00 00
       -1.1479456e-05 3.975587e-06 6e-45 6e-45
0001a0 04 00 00 00 90 eb a3 b7 bc 24 7d b7 95 de ce b4
       6e-45 -1.9540807e-05 -1.5088528e-05 -3.853244e-07
0001b0 04 00 00 00 04 00 00 00 04 00 00 00 82 46 de b4
       6e-45 6e-45 6e-45 -4.1402023e-07
0001c0 cf 97 af b5 04 00 00 00 04 00 00 00 91 e5 49 b7
       -1.3082698e-06 6e-45 6e-45 -1.2033984e-05
0001d0 6b 66 38 b6 04 00 00 00 7c db 45 37 d1 b7 a7 35
       -2.7477752e-06 6e-45 1.1793218e-05 1.2495967e-06
0001e0 5b f4 75 b6 04 00 00 00 04 00 00 00 b7 77 08 33
       -3.6650079e-06 6e-45 6e-45 3.1773848e-08
0001f0 77 f9 94 b6 04 00 00 00 04 00 00 00 04 00 00 00
       -4.4397852e-06 6e-45 6e-45 6e-45

exp_avg_sq f4 [128]
000000 86 14 77 31 ac 37 8a 13 5a 23 83 14 ec e1 16 12
       3.5954897e-09 3.4890994e-27 1.3241563e-26 4.7610125e-28
000010 af 8c 96 30 bc 3e c2 2b 52 10 3e 2a 57 e7 75 0f
       1.0953921e-09 1.3801941e-12 1.6881052e-13 1.2123987e-29
000020 f1 12 e6 17 45 fc be 15 61 a0 50 0c 6a e5 a9 0e
       1.4868183e-24 7.71384e-26 1.6071999e-31 4.1882634e-30
000030 f2 c6 52 11 16 d0 09 32 dc 46 4e 14 6b 7e cd 31
       1.6627384e-28 8.021763e-09 1.0414317e-26 5.9806573e-09
000040 9d f5 0f 2a 42 37 d1 32 85 5e 88 13 92 8a 31 34
       1.2786166e-13 2.435593e-08 3.442443e-27 1.6534821e-07
000050 03 bb d3 18 15 d4 3f 2a ae ef 28 34 0c 18 ba 11
       5.4731055e-24 1.7037789e-13 1.5733414e-07 2.9360446e-28
000060 86 eb 02 15 73 79 24 2f 7a 03 a8 15 45 6e 32 33
       2.6439086e-26 1.495886e-10 6.7860145e-26 4.1544144e-08
000070 81 79 07 2b 09 2e d5 2e 0f f5 16 28 b2 b5 95 19
       4.8130255e-13 9.694296e-11 8.379811e-15 1.5479625e-23
000080 e0 76 5b 33 ad 14 22 33 94 22 47 17 51 32 6e 32
       5.1098027e-08 3.773737e-08 6.434401e-25 1.3864864e-08
000090 30 ff a0 2c bb 83 d3 1b 6f 49 00 14 66 87 e1 15
       4.575805e-12 3.499215e-22 6.476831e-27 9.10904e-26
0000a0 fb 3c 9d 32 cb 5a 84 14 39 db b7 10 d0 c5 f0 1a
       1.8304936e-08 1.3364405e-26 7.251854e-29 9.9581257e-23
0000b0 4a 4f ff 30 88 a3 c5 12 1b 8e 0c 1a 4c f5 c4 10
       1.8576227e-09 1.2472761e-27 2.9066113e-23 7.768631e-29
0000c0 3a 73 a1 0b 43 e5 64 0e 18 e0 a6 10 72 4f 8d 24
       6.218832e-32 2.8213555e-30 6.5820726e-29 6.128359e-17
0000d0 91 9e f4 0e 81 46 79 0a 52 6a 96 08 c9 be 95 0f
       6.0303338e-30 1.2002174e-32 9.052792e-34 1.4766022e-29
0000e0 f9 9c 3e 14 71 85 c2 0e 5c fe ed 1b 70 4f ee 1b
       9.623506e-27 4.795319e-30 3.9372737e-22 3.9425132e-22
0000f0 dd 8a 7f 12 a0 19 57 10 e3 4e 04 16 a9 52 d2 10
       8.0634975e-28 4.2421014e-29 1.0687767e-25 8.2957753e-29
000100 fd ef 70 2e c2 07 2d 32 29 6f e1 2d d1 4a 5a 19
       5.4782835e-11 1.0071689e-08 2.5628904e-11 1.1285445e-23
000110 e5 77 e8 16 6c 1e 88 32 5c d7 5c 13 0f 55 2f 19
       3.7557286e-25 1.5846318e-08 2.7874084e-27 9.0644654e-24
000120 f9 35 22 18 bd f1 41 15 cd 46 b0 10 e8 f2 32 0a
       2.0965258e-24 3.9166737e-26 6.9528846e-29 8.616074e-33
000130 22 5d b6 1a 72 34 09 2d 7d 67 9b 33 28 98 89 2e
       7.54239e-23 7.799194e-12 7.2365744e-08 6.257067e-11
000140 55 40 05 1b 8d 19 96 2e 38 df cf 29 50 2d a2 32
       1.1022289e-22 6.825749e-11 9.231369e-14 1.8879888e-08
000150 6d a4 9c 32 20 c5 37 33 a0 7b 85 14 d7 a8 e8 2a
       1.8235562e-08 4.2787292e-08 1.347833e-26 4.1328635e-13
000160 81 9c 3f 2f 48 1b 3a 31 d4 29 e2 33 24 cb ee 13
       1.742695e-10 2.708207e-09 1.05315536e-07 6.027996e-27
000170 28 92 91 1c fb 2c 75 16 23 bb 4c 15 03 cf 6c 11
       9.633076e-22 1.9805136e-25 4.1345097e-26 1.8680908e-28
000180 74 23 bb 0d 21 a7 6a 16 5d 2b 51 0f 20 05 ca 32
       1.15333e-30 1.8955106e-25 1.0312847e-29 2.3518226e-08
000190 ed b0 30 33 6b 47 f1 30 a5 f6 e1 19 b2 f3 40 0c
       4.1139106e-08 1.7555356e-09 2.3364074e-23 1.4864476e-31
0001a0 30 9c 8d 14 1a 18 87 32 47 80 b0 32 bb 22 58 2d
       1.4298967e-26 1.5727029e-08 2.054743e-08 1.228589e-11
0001b0 67 34 69 1b 0d b2 a2 0d 70 ed 86 0d e1 ae 09 2e
       1.929024e-22 1.0026885e-30 8.315549e-31 3.1305517e-11
0001c0 0d f8 94 2e 4f 36 b7 1c 5f 9f f2 18 76 31 c0 31
       6.7743235e-11 1.2123963e-21 6.2716458e-24 5.5935585e-09
0001d0 66 7f 35 2f 35 19 30 13 25 fb 52 32 76 a0 9e 2d
       1.6507115e-10 2.2226751e-27 1.22807124e-08 1.803378e-11
0001e0 1a e8 6f 2f 63 1b 03 07 89 c9 bd 08 bb 2d 1e 2f
       2.1819382e-10 9.863393e-35 1.1422404e-33 1.4386263e-10
0001f0 2a 83 56 32 df 90 a3 16 ac 86 92 12 97 8d c6 1d
       1.2486263e-08 2.6425497e-25 9.247095e-28 5.2556564e-21
