HW4/outputs/pre_trained_model_cnn_orig.pt (torch, 249663 bytes, 18 tensors)

conv1.weight f4 [64, 3, 9, 9]
0	0xbf7dd938	-0.99159575
1	0xbfa1aa24	-1.2630048
2	0xbe48bd34	-0.19603425
3	0xbe3c541b	-0.18391459
4	0xbe3a0d6d	-0.18169184
5	0xbd1a0fa3	-0.03761257
6	0xbced9a9c	-0.029004388
7	0x3d231a46	0.03981998
8	0x3e88cc4f	0.26718375
9	0xbf970333	-1.1797851
10	0xbf9f9315	-1.2466761
11	0xbe83c9a1	-0.25739768
12	0xbe6b4a34	-0.22977525
13	0xbe9619ba	-0.29316503
14	0xbed3fb99	-0.4140289
15	0xbf05e032	-0.5229522
16	0xbec6e879	-0.38849238
17	0xbe00f073	-0.12591724
18	0xbe064675	-0.13112815
19	0x3cb1aadb	0.021687916
20	0x3ebce0e5	0.3689033
21	0x3edf312f	0.43592212
22	0x3ef7fc97	0.48434898
23	0x3ed39ecc	0.4133209
24	0x3e966a99	0.29378203
25	0x3d059ffc	0.032623276
26	0xbd25c98e	-0.04047542
27	0xbe5d28ef	-0.21597646
28	0xbda1b4cc	-0.078958124
29	0x3e9b85b8	0.30375457
30	0x3e96e41c	0.2947091
31	0x3ed746ff	0.42046353
32	0x3e85eb56	0.2615611
33	0x3e58179d	0.21102758
34	0xbd50bbbb	-0.050960284
35	0xbd3208f9	-0.04346559
36	0xbdc7199a	-0.0972168
37	0xbd1785a7	-0.036992695
38	0x3df2e1f3	0.11859503
39	0x3e2536d1	0.16134192
40	0x3e3bb558	0.18330896
41	0x3e09feec	0.13476151
42	0x3dab044f	0.08350431
43	0xbc94efb2	-0.018180702
44	0xbd58f76f	-0.052970346
45	0xbe10b60e	-0.14131948
46	0xbc112417	-0.008858702
47	0x3da38218	0.07983798
48	0x3cb90a23	0.022587841
49	0xbdb912d1	-0.09036792
50	0xbdec44a5	-0.115365304
51	0xbc209641	-0.009801448
52	0xbd81debe	-0.06341313
53	0xbca55f91	-0.020187171
54	0x3b2b8263	0.0026170246
55	0xbdc4f482	-0.09616949
56	0xbd949d3c	-0.072565526
57	0xbe3dae4a	-0.18523517
58	0xbe860269	-0.26173714
59	0xbe5f6974	-0.21817571
60	0xbe5b6ac9	-0.21427454
61	0xbe5c3718	-0.21505392
62	0xbd611aa6	-0.054957055
63	0xbda150d2	-0.078767434
64	0xbd1b1765	-0.037864108
65	0x3dd5dbd3	0.10442319
66	0x3b38a3ab	0.0028173726
67	0xbd312ddd	-0.04325663
68	0xbdfb7bed	-0.12279496
69	0xbd5ae60e	-0.053442053
70	0xbdb450de	-0.08804487
71	0x3d9df112	0.07711996
72	0xbe182b7f	-0.14860342
73	0xbd04b716	-0.032401167
74	0x3e58c134	0.21167451
75	0x3e1b55a5	0.1516939
76	0x3dcf0b89	0.10109622
77	0xbd013605	-0.031545658
78	0x3d67aa26	0.05655875
79	0xbbdc4eb8	-0.006723251
80	0x3e08f4e0	0.13374662
81	0xbf93edbc	-1.1556926
82	0xbfaa6a43	-1.3313679
83	0x3decf5f4	0.11570349
84	0x3db02f83	0.08602812
85	0x3d95078d	0.07276831
86	0x3e7e2c12	0.24821499
87	0x3e980a69	0.29695442
88	0x3dee5c07	0.116386466
89	0xbe2269f0	-0.15860724
90	0xbfaf6983	-1.3704075
91	0xbfea9d35	-1.8329226
92	0x3dc3d5b7	0.09562247
93	0x3d0e7c5f	0.03478658
94	0xbc8e7843	-0.01739133
95	0x3da1dc69	0.07903368
96	0x3dea301d	0.11434958
97	0xbc7865f8	-0.01516103
98	0xbe830144	-0.25586903
99	0x3c3f125a	0.01166209
100	0xbde92849	-0.11384637
101	0xbe73b328	-0.23798811
102	0xbe3de322	-0.18543676
103	0xbd8243a2	-0.06360556
104	0x3c448833	0.011995363
105	0x3dcfd41b	0.10147878
106	0x3db134e2	0.08652665
107	0xbd3b6464	-0.045750037
108	0x3d793700	0.060843468
109	0xbe29d57d	-0.16585346
110	0xbe888bf3	-0.26669273
111	0xbe88ba53	-0.26704654
112	0xbdd07d01	-0.101800926
113	0x3b549715	0.0032438685
114	0x3e010656	0.12600073
115	0x3db231ae	0.08700882
116	0xbd75c71a	-0.06000433
117	0x3d8bf09c	0.06833002
118	0xbd2de035	-0.04245015
119	0xbe434209	-0.19068159
120	0xbe47fb29	-0.19529404
121	0xbe00b009	-0.12567152
122	0x3cde2eb0	0.027121872
123	0x3dc02ada	0.09383173
124	0x3ce9476b	0.028476438
125	0xbcbdd395	-0.02317218
126	0x3e767f8a	0.2407209
127	0x3c63f302	0.013912918
128	0xbd5b171d	-0.05348884
129	0xbe1d8302	-0.15382007
130	0xbd8fe6b6	-0.070264265
131	0xbd58620a	-0.052827872
132	0x3d116b26	0.035502575
133	0x3e170240	0.14746952
134	0x3cb72ab4	0.02235923
135	0x3e8ca412	0.27468926
136	0x3dcdb6ca	0.1004463
137	0xbd800b8b	-0.06252202
138	0xbd859f6e	-0.065245494
139	0xbd0d97d0	-0.034568608
140	0xbdf53207	-0.119724326
141	0xbcaee354	-0.021348633
142	0x3e26099f	0.16214608
143	0x3d72b12b	0.05925099
144	0x3e2f9c92	0.1714957
145	0x3d330d88	0.043714076
146	0x3d05eb08	0.032694846
147	0xbd09942f	-0.033588585
148	0xbce61020	-0.02808386
149	0xbda60c42	-0.08107807
150	0xbdcafc15	-0.09911362
151	0x3dc2d1ff	0.0951271
152	0x3d03f567	0.032216456
153	0xbc805535	-0.01566563
154	0xbdb8b902	-0.090196624
155	0x3dc6ca16	0.097065136
156	0x3d8f849d	0.07007716
157	0x3d2b223d	0.0417807
158	0xbc7290d8	-0.014805041
159	0xbd6a1ecc	-0.057158276
160	0x3d6c12da	0.057635166
161	0x3c9a7e00	0.01885891
162	0xbf87846a	-1.0587285
163	0xbf9d4123	-1.2285503
164	0xbde4d791	-0.111739285
165	0xbe3a7b4a	-0.18211094
166	0xbdd9f055	-0.10641543
167	0xbdaabef5	-0.083372034
168	0xbbf54431	-0.0074849357
169	0x3d153d56	0.036435448
170	0xbde5decb	-0.11224135
171	0xbfd88146	-1.6914451
172	0xc016dec8	-2.3573475
173	0xbda5d006	-0.08096318
174	0xbd923f86	-0.071410224
175	0xbe082542	-0.13295463
176	0xbddcddb3	-0.10784473
177	0xbe2b6d86	-0.16740999
178	0xbd9dd4cd	-0.07706604
179	0xbe2a4708	-0.16628659
180	0x3d8d9fd3	0.0691525
181	0x3d16904a	0.0367587
182	0x3e138853	0.14407472
183	0x3e5796a4	0.21053559
184	0x3e96885e	0.29400915
185	0x3e81b236	0.25331277
186	0x3e69707f	0.2279682
187	0xbd36ef58	-0.04466185
188	0xbe52ac3b	-0.20573513
189	0x3cca10ee	0.024666276
190	0xbd8c48db	-0.068498336
191	0x3e144e82	0.14483073
192	0x3e94348c	0.2894634
193	0x3ea671e0	0.32508755
194	0x3ec53ff8	0.38525367
195	0x3e95ae55	0.29234567
196	0xbc578d15	-0.013156195
197	0xbdcd0c09	-0.10012061
198	0x3bf7d6d8	0.007563453
199	0xbd8bc760	-0.06825137
200	0x3ddb5dce	0.10711251
201	0x3dd3beff	0.10339164
202	0x3e765078	0.24054134
203	0x3e2f63bd	0.17127891
204	0x3e0a0aca	0.13480678
205	0x3c97135a	0.018441845
206	0xbdc9f080	-0.09860325
207	0x3d93af10	0.07211125
208	0xbde08e09	-0.10964591
209	0x3d9f2335	0.07770387
210	0x3d96fbbc	0.07372233
211	0x3d51317c	0.051072583
212	0x3da9f25a	0.08298178
213	0x3d8657d5	0.065597214
214	0xbd09843b	-0.03357337
215	0xbd4c1b69	-0.049830828
216	0x3cff91d4	0.031197466
217	0xbe5e6c89	-0.2172109
218	0xbc535d2a	-0.01290063
219	0xbdd94fe6	-0.106109425
220	0xbe47ddac	-0.19518155
221	0xbe5bffac	-0.2148425
222	0xbe1e76e0	-0.15475035
223	0xbe1675d7	-0.1469339
224	0xbe266580	-0.16249657
225	0xbbe2bdf9	-0.006919619
226	0xbe5744c9	-0.21022333
227	0x3d49ac44	0.04923655
228	0xbcb6cb5e	-0.02231377
229	0xbdc635c8	-0.09678227
230	0xbdafcacd	-0.08583603
231	0xbe3cf70c	-0.18453616
232	0xbd38c551	-0.04511005
233	0x3d094afb	0.033518773
234	0xbd1d25b5	-0.03836604
235	0xbe3f28fc	-0.18667978
236	0x3e05af9f	0.13055275
237	0x3d8c2b76	0.06844227
238	0x3d2ecb29	0.042674217
239	0xbc8ed5ca	-0.017435927
240	0xbc516ffe	-0.012783049
241	0x3d9bfec8	0.07616955
242	0x3df3c97f	0.11903667
243	0xbc01fb40	-0.007933438
244	0xbe1bcea6	-0.15215549
245	0xbe61fcba	-0.22069064
246	0xbd4e616a	-0.05038587
247	0x3d5b61ca	0.053560056
248	0x3de7b33c	0.11313483
249	0x3de3b57f	0.11118602
250	0x3d4ed445	0.050495405
251	0xbe2a9dbf	-0.16661738
252	0x3d3d6fb1	0.046249095
253	0xbe0189e5	-0.12650259
254	0xbe6e3230	-0.23261333
255	0x3d7fa907	0.062417056

conv1.bias f4 [64]
0	0x3d57eece	0.052717976
1	0xbea0726e	-0.31337303
2	0xbcae22aa	-0.021256763
3	0xbd591b8e	-0.053004794
4	0x3e17e7ce	0.1483452
5	0xbd4813e7	-0.048847105
6	0xbd326c13	-0.0435601
7	0xbce7c356	-0.028291386
8	0x3e65f572	0.22456911
9	0xbc152520	-0.00910309
10	0xbdd005d1	-0.101573594
11	0x3c4321f0	0.011909947
12	0xbc8cde15	-0.01719574
13	0xbd841f9c	-0.064513415
14	0x3e7b3268	0.24530947
15	0xbf4e2cde	-0.8053721
16	0xbbe6a747	-0.007038984
17	0x3cdd407b	0.027008286
18	0x3cf80101	0.030273916
19	0x3d5c5cfa	0.053799607
20	0xbd69f339	-0.05711672
21	0xbbbc177e	-0.005740105
22	0xbd1c59dd	-0.038171638
23	0x3b133762	0.002246343
24	0x3c88e06e	0.016708579
25	0xbcb73361	-0.022363367
26	0xbd33ee89	-0.043928657
27	0x3e39f906	0.18161401
28	0xbc9bf541	-0.019037845
29	0xbcf7860f	-0.030215291
30	0x3ac15016	0.0014748599
31	0xbd026c74	-0.03184171
32	0x3da2458b	0.079234205
33	0xbf8247ed	-1.01782
34	0xbdb106d9	-0.08643884
35	0xbf586f3b	-0.84544724
36	0x3da11455	0.07865206
37	0x3e28b5ca	0.16475597
38	0xbe8eac2e	-0.27865738
39	0xbd5b8491	-0.053593222
40	0xbd70841b	-0.058719736
41	0x3dfa0a7c	0.12209031
42	0x3eba2909	0.36359432
43	0xbc8a4b45	-0.016881594
44	0x3e4fb65d	0.2028441
45	0xbb9847ad	-0.0046472163
46	0xbc99a848	-0.018757
47	0xbd87958e	-0.06620322
48	0x3c3ef9f4	0.011656273
49	0x3cb69ed0	0.022292525
50	0x3e6931fd	0.22772975
51	0x3e81afa5	0.2532932
52	0x3d6ef555	0.058339436
53	0x3ba355e7	0.0049846056
54	0x3e76ff9b	0.24120943
55	0xbd802d89	-0.06258685
56	0x3da5bfeb	0.08093246
57	0x3e2ebfc1	0.17065336
58	0xbd02807c	-0.031860813
59	0xbc233793	-0.00996198
60	0xbce395e0	-0.027781427
61	0xbd10244a	-0.035190858
62	0x3c6c38f5	0.0144178765
63	0x3d098911	0.033577982

conv2.weight f4 [32, 64, 1, 1]
0	0xbd5e00aa	-0.054199852
1	0xbcb80946	-0.02246536
2	0xbe052c00	-0.13005066
3	0x3d42c5af	0.047551807
4	0x3c072e9c	0.008250859
5	0x3dfcc167	0.12341576
6	0xba25ab2d	-0.00063197577
7	0xbc818074	-0.015808322
8	0x3a885074	0.0010399953
9	0x3e163a9e	0.14670798
10	0xbcaa1629	-0.02076252
11	0x3d844e3f	0.06460237
12	0xbe45ab82	-0.19303706
13	0xbd95a1e0	-0.07306266
14	0x3dc1b5af	0.094584815
15	0x3c2ed04c	0.010669779
16	0x3db0d9ad	0.08635268
17	0x3d7b9cf7	0.06142899
18	0x3d6b2dd4	0.057416752
19	0x3d83922c	0.064243644
20	0x3d22dc40	0.039760828
21	0x3ca63703	0.020289904
22	0xbca2edc6	-0.01988877
23	0x3e622dd2	0.22087792
24	0x3b0cab69	0.0021464473
25	0x3dd65ab9	0.10466523
26	0x3d5dd08f	0.054153975
27	0x3c5269bf	0.012842595
28	0xbdee8d38	-0.11648029
29	0xbd236c39	-0.03989813
30	0x3d9a7e66	0.0754364
31	0x3b026f5c	0.00199028
32	0xbcdc5464	-0.02689571
33	0x3b04582f	0.0020194163
34	0x3c43a338	0.01194077
35	0x3a00ef7f	0.00049185
36	0x3d00ed8e	0.03147655
37	0x3c1e7de7	0.009673572
38	0xbadcb9d9	-0.0016840055
39	0x3cb04a58	0.021519825
40	0xbdcefe1b	-0.101070605
41	0x3c878d2b	0.016546806
42	0x3b33b4f3	0.0027421087
43	0x3e9d3206	0.30702227
44	0xbc267236	-0.010159066
45	0x3d797a30	0.060907543
46	0x3d2394f5	0.03993698
47	0xbd9c53b6	-0.07633154
48	0x3ac2251c	0.0014812085
49	0x3da16222	0.078800455
50	0x3ca111cc	0.019661807
51	0xbc33aa98	-0.010965966
52	0xbe17d4dd	-0.14827295
53	0x3c1883ba	0.00930875
54	0xbd2940cb	-0.041321557
55	0x3dd1ce18	0.102443874
56	0x3c0eaedd	0.008708683
57	0xbbf3d001	-0.0074405675
58	0x3ea13587	0.3148615
59	0x3e45c7ac	0.1931445
60	0xbdf96d9a	-0.12179108
61	0xbb8f29c0	-0.0043689907
62	0xbcb229c5	-0.021748433
63	0xbc8ff428	-0.017572477
64	0x3dd93618	0.10606021
65	0xbcaf1160	-0.02137059
66	0xbe0efd60	-0.13963842
67	0xbd554d9c	-0.052075967
68	0x3b3dc513	0.0028956577
69	0xbded5f61	-0.11590458
70	0x3c64a917	0.01395633
71	0x3d208d8a	0.039197482
72	0xbb1b112f	-0.0023661365
73	0xbe6cdc99	-0.23131026
74	0xbd901512	-0.07035269
75	0x3a6a8559	0.0008946262
76	0xbdaa814f	-0.08325445
77	0xbddd8fda	-0.10818453
78	0xba3163f5	-0.0006766909
79	0x3b6111fb	0.0034342993
80	0xbc88139c	-0.016610913
81	0x3e646ff0	0.22308326
82	0x3e2b467a	0.16726103
83	0x3b7aee06	0.0038288846
84	0x3d9e41ba	0.0772738
85	0x3f0c1fd3	0.5473606
86	0xbd0fe719	-0.0351325
87	0xbcc24dd5	-0.023718754
88	0xb9f749fb	-0.0004716663
89	0x3d9a8fbe	0.07546948
90	0xbdb35408	-0.08756262
91	0xbcd0a7bd	-0.025470609
92	0xbc1bb6c0	-0.00950402
93	0xbdfcd18a	-0.12344654
94	0x3e8ca1e8	0.27467275
95	0xbd46edfc	-0.048566803
96	0x3d2fd47a	0.042927243
97	0x3b169f0c	0.0022982983
98	0x3c886317	0.016648812
99	0x3b59d6bd	0.0033239566
100	0xbbf7c91b	-0.0075618154
101	0x3b5da975	0.0033822928
102	0xbb35ad5c	-0.0027721738
103	0x3df9abaf	0.12190949
104	0xbe45c15d	-0.19312043
105	0xbc9c613e	-0.019089337
106	0x391a4e2a	0.00014715703
107	0xbd2b25b1	-0.041783992
108	0xbc095f1a	-0.00838449
109	0xbdba71f6	-0.091037676
110	0xbd78d1f4	-0.060747102
111	0x3df4d772	0.119551554
112	0x3c854d4c	0.01627221
113	0x3db01bb0	0.08599031
114	0xbc9346ae	-0.017978039
115	0x3cc7df73	0.024398541
116	0xbbb7e0c7	-0.0056115123
117	0xbc67b80a	-0.014142999
118	0xbc8e4d94	-0.017370977
119	0x3c7cae55	0.015422423
120	0xbbd9ea23	-0.0066502257
121	0x3bf91c8b	0.0076022795
122	0x3e86265b	0.26201138
123	0x3d4a725e	0.049425475
124	0x3de61e60	0.11236262
125	0x3cd6fcd0	0.026243597
126	0x3d311b23	0.04323877
127	0x3e24a006	0.16076669
128	0x3dd647b0	0.10462892
129	0xbc6e0350	-0.014527157
130	0xbd81fb8a	-0.063468054
131	0xbd92e8f3	-0.07173338
132	0x3c1c1ac9	0.00952787
133	0x3db92d41	0.090418346
134	0x3be4ceb6	0.0069826497
135	0x3db22252	0.08697952
136	0xbc45a84a	-0.012064049
137	0xbd95e3ca	-0.07318838
138	0xbd931d40	-0.07183313
139	0x3db0698e	0.08613883
140	0xbdc9c240	-0.09851503
141	0x3cf58fa8	0.029975727
142	0xbd246331	-0.04013366
143	0xbb6faf6a	-0.003657306
144	0x3e0d387f	0.13791083
145	0xbaf3245f	-0.0018550268
146	0xbe1d8ad1	-0.15384986
147	0x3d716b81	0.058940414
148	0x3ddc3750	0.107527375
149	0x3d536241	0.051607374
150	0x3d448f0b	0.04798798
151	0x3de93d1b	0.11388608
152	0xbaf81a44	-0.0018928726
153	0xbd2efbac	-0.04272048
154	0x3d54b0e3	0.051926505
155	0xbc985ac7	-0.018597974
156	0x3ce4c395	0.027925292
157	0xbddf507d	-0.10904024
158	0xbd46f997	-0.04857787
159	0xbe092f56	-0.13396963
160	0x3d4f3b94	0.050593928
161	0x3bf1996a	0.0073730247
162	0x3a22e505	0.0006213936
163	0x3c0f0eb4	0.008731533
164	0x3cd29162	0.02570409
165	0xbc6e3e01	-0.01454115
166	0x3b78a2f3	0.0037938922
167	0x3d03c825	0.032173295
168	0x3d7a8260	0.06115949
169	0x3b818305	0.0039523863
170	0x3b4cf803	0.0031275756
171	0x3ec35fc1	0.38158992
172	0xbc839c3c	-0.01606571
173	0xbdd9bc8b	-0.10631665
174	0xbc1c52e0	-0.009541243
175	0xbd41bc53	-0.04729874
176	0x3bdecc8e	0.006799287
177	0x3c3acef7	0.011401883
178	0xbc57a346	-0.013161486
179	0xbbdc7c01	-0.0067286496
180	0x3e2c20a0	0.1680932
181	0xbbfa9f4f	-0.0076483856
182	0x3d93f5df	0.072246306
183	0xbd8072b2	-0.062718764
184	0x3d62b6d7	0.05535015
185	0xbb993902	-0.0046759853
186	0xbe27f182	-0.16400722
187	0x3e3f7d38	0.18700111
188	0x3dcbfae1	0.09959961
189	0x3d935c84	0.0719538
190	0x3ccdbe76	0.025115233
191	0x3c3ac211	0.011398808
192	0x3c034144	0.008011166
193	0xbce34883	-0.027744537
194	0xbd62d719	-0.055380914
195	0xbdd4f789	-0.10398776
196	0xbdc6f834	-0.0971531
197	0x3d38f5e8	0.04515639
198	0xbde6aa22	-0.11262919
199	0x3d984a71	0.074360736
200	0xbe4979e1	-0.196754
201	0xbda3b383	-0.079932235
202	0xbb8a0624	-0.004212158
203	0x3db45754	0.08805719
204	0xbd05b61b	-0.032644372
205	0xbd150670	-0.036383092
206	0xbdecb82a	-0.11558564
207	0x3d9ef041	0.077606685
208	0xbdf8aa2c	-0.12141833
209	0xbde84ac0	-0.113423824
210	0x3b1ead40	0.0024212152
211	0xbdf15de6	-0.11785488
212	0xbdb26b01	-0.087118156
213	0x3c47368c	0.012159001
214	0xbdad2ab2	-0.08455409
215	0xbdfc535f	-0.12320589
216	0xbd810707	-0.063001685
217	0x3de1a2df	0.11017393
218	0xbdadadcd	-0.084804155
219	0x3d3538f2	0.04424376
220	0x3db76a72	0.0895585
221	0x3d9b3ada	0.075795844
222	0xbe092800	-0.13394165
223	0xbbb2a4d2	-0.005451777
224	0xbdd6eb22	-0.10494067
225	0x3d19af83	0.037520897
226	0x3d7cccae	0.061718635
227	0xbcab2175	-0.020889977
228	0xbe064f0e	-0.13116094
229	0xbe008cab	-0.1255366
230	0x3cc76f4d	0.024345065
231	0xbded1d9b	-0.115779124
232	0x3be9a680	0.007130444
233	0xbe1e0495	-0.15431435
234	0xbd3fd48c	-0.04683356
235	0x3ddd0282	0.10791494
236	0x3c690e67	0.014224625
237	0xbcc7b449	-0.024377959
238	0x3d8b6ac1	0.06807471
239	0x3dee3ce3	0.11632707
240	0xbdd58087	-0.10424905
241	0xbb1b9f17	-0.0023745948
242	0xbdb5347a	-0.088479
243	0xbe248808	-0.16067517
244	0x3d92b4a1	0.071633585
245	0xbdd72582	-0.10505201
246	0xbe21c86c	-0.15799111
247	0xbc58c5b4	-0.01323073
248	0xbe0bec64	-0.13664395
249	0xbe0bde2a	-0.13658968
250	0x3da8c062	0.08239819
251	0xbd9e5ff3	-0.077331446
252	0x3dd891bb	0.10574671
253	0x3da64f4f	0.08120596
254	0xbcb002e2	-0.02148575
255	0xbe0f24f3	-0.13978939

conv2.bias f4 [32]
0	0xbc8844bd	-0.01663434
1	0xbb47d2ea	-0.0030490705
2	0xbbebac35	-0.0071921595
3	0xbd63d361	-0.05562151
4	0x3bdfcadb	0.006829602
5	0xbd8123f1	-0.063056834
6	0xbbad8a16	-0.005296002
7	0xbd27ea8e	-0.040995173
8	0xbce0a986	-0.027424585
9	0xbbb55831	-0.005534195
10	0xbb34e2c5	-0.0027600985
11	0xba7cb980	-0.0009640679
12	0xbc34fd6c	-0.011046749
13	0xbcd16643	-0.025561457
14	0x3c8bf26e	0.017083373
15	0xbbb75537	-0.005594875
16	0xbd868835	-0.06568948
17	0x3d48800d	0.048950244
18	0x3d2989dc	0.04139124
19	0xbd8fecba	-0.07027574
20	0x3b709fc8	0.003671633
21	0x3ca9941b	0.020700505
22	0xbe28f730	-0.16500545
23	0xbe1854e7	-0.14876138
24	0x3cd9f1a2	0.026604477
25	0x3c54ea45	0.012995307
26	0xbb4cbd71	-0.0031240846
27	0xbb86b76b	-0.0041112206
28	0xbcba59ba	-0.022747863
29	0xbba9bdd8	-0.005180102
30	0xbe033263	-0.1281219
31	0xbc66056d	-0.01403938

conv3.weight f4 [3, 32, 5, 5]
0	0xbc893742	-0.016749982
1	0xbd129b21	-0.035792474
2	0xbcfe4531	-0.031038852
3	0xbb9e889c	-0.0048380625
4	0xbba02a67	-0.0048878673
5	0x3c028fd0	0.007968858
6	0xbd1cedab	-0.038312595
7	0xbb95471a	-0.004555595
8	0xbbde4394	-0.0067829583
9	0x3cb61d31	0.022230716
10	0x3b4b2836	0.003099931
11	0xbbf19e76	-0.0073736263
12	0xbb92bb08	-0.0044778623
13	0x3c54a27e	0.012978194
14	0x3babf980	0.0052482486
15	0x3d16456c	0.0366873
16	0x3c9913bd	0.01868617
17	0x3d2148f0	0.0393762
18	0x3b928053	0.004470864
19	0xbbf917bc	-0.0076017063
20	0xbc8ee7bd	-0.017444486
21	0x3c1e84b4	0.009675194
22	0x3d613137	0.054978576
23	0x3b868015	0.004104624
24	0xbc3a9358	-0.011387669
25	0x3ddc5e51	0.10760177
26	0x3dd561f3	0.10419073
27	0x3dfe5494	0.12418476
28	0x3d5d8aca	0.054087438
29	0x3d12bc35	0.03582402
30	0x3dd86059	0.10565252
31	0x3e06211f	0.13098572
32	0x3deb02d3	0.11475148
33	0x3dbe139c	0.09281084
34	0xbc3500a6	-0.011047518
35	0x3df936ab	0.1216863
36	0x3db8efed	0.09030137
37	0x3dcba19f	0.09942936
38	0x3dab2d53	0.08358254
39	0x3d1b50ae	0.03791874
40	0x3dd43671	0.103619464
41	0x3d76c5cb	0.060247224
42	0x3d7a42ae	0.061098747
43	0x3d883da3	0.06652381
44	0x3d35c2fc	0.044375405
45	0x3d8e16de	0.06937955
46	0x3ca352dc	0.019936971
47	0x3c78ca52	0.015184956
48	0x3a5746aa	0.0008212129
49	0x3dc1b1f3	0.09457769
50	0xbb83aa59	-0.0040181098
51	0x3b3c2155	0.002870639
52	0x3b006402	0.001959086
53	0x3c26f802	0.010190966
54	0x3d9527a9	0.07282955
55	0x3bd40354	0.0064701233
56	0x3c578929	0.01315526
57	0x3d14f894	0.036369875
58	0x3c9f907a	0.019478071
59	0xbd035672	-0.032064863
60	0xba8cc464	-0.0010739681
61	0x3c1cfa7b	0.009581204
62	0x3ca522d9	0.020158218
63	0x3c46dde4	0.012137864
64	0x3a832630	0.0010005888
65	0xbbf38d5e	-0.0074326238
66	0xbcf4fea4	-0.029906578
67	0x3c69d290	0.014271393
68	0xbcc9a2bc	-0.02461373
69	0xbd01bd15	-0.031674463
70	0xbb813a28	-0.0039437003
71	0x3c5a8268	0.013336755
72	0x3c62c67d	0.013841269
73	0xbd19891f	-0.037484284
74	0xbcfd62b9	-0.030930864
75	0x3ba4969e	0.005022838
76	0xbd00020a	-0.031251945
77	0xbcf99075	-0.03046439
78	0xbc508c33	-0.012728739
79	0x3cf4b7d7	0.029872818
80	0x3c50c2a3	0.0127417175
81	0xbd454255	-0.048158962
82	0x3c9c55e3	0.019083923
83	0xbb9bf059	-0.0047588763
84	0xbcc64ea3	-0.024207419
85	0xbd33d315	-0.043902475
86	0x3ad5c1cd	0.0016308367
87	0x3c60a64b	0.013711522
88	0x3c5e7a0a	0.013578901
89	0x3c9e1610	0.01929763
90	0xbd5b4099	-0.053528402
91	0xbc32c3c9	-0.010910937
92	0xbd16f2cc	-0.036852643
93	0xbcd6e58c	-0.026232503
94	0x3d39a278	0.045320958
95	0x3b5a7a08	0.0033336896
96	0xbc5b04d6	-0.013367852
97	0x3cbbb358	0.022912666
98	0x3d4673ed	0.0484504
99	0xbb510504	-0.0031893859
100	0xbcafabd2	-0.021444235
101	0x3d27ca28	0.040964276
102	0x3dbe804f	0.09301817
103	0x3ccdc332	0.02511749
104	0xbcda2ef6	-0.02663372
105	0xbaeb967b	-0.0017973924
106	0xbc3b01d6	-0.011414012
107	0xbc2bdfd2	-0.010490375
108	0xbce3b3c5	-0.027795682
109	0x3a7e0567	0.0009690136
110	0x3bd736cc	0.0065678116
111	0xbd29581c	-0.041343793
112	0xbdf0acd0	-0.11751711
113	0xbd238b4b	-0.039927762
114	0x3c76f510	0.015073076
115	0xbc4761d1	-0.012169317
116	0xbac65248	-0.0015130723
117	0xbc5095ea	-0.012731055
118	0xbc96e234	-0.018418409
119	0xbc466b80	-0.012110591
120	0x3c67db47	0.014151401
121	0x3d3ce31e	0.046115033
122	0x3d98a5f6	0.074535295
123	0x3d498bf9	0.049205754
124	0x3b0f11d2	0.002183069
125	0x3d7b6d70	0.061383665
126	0x3d66296a	0.05619184
127	0x3d431e8e	0.04763656
128	0x3d2fc2b4	0.042910293
129	0x3d2939c4	0.041314855
130	0xbbc854af	-0.0061136107
131	0x3bca95de	0.0061824163
132	0x3d8b3192	0.06796564
133	0x3b09aa75	0.0021006141
134	0xbcb02258	-0.021500751
135	0x3d20a2fb	0.03921793
136	0x3cba2f28	0.022727564
137	0x3dd63389	0.10459048
138	0xbd2d3174	-0.04228349
139	0xbddfdda9	-0.1093095
140	0x3c87dee7	0.01658578
141	0xbbd374b4	-0.006453121
142	0x3cb42496	0.021990102
143	0xbd68aad1	-0.05680353
144	0xbd540098	-0.05175838
145	0x3d1f2a75	0.03885885
146	0x3d693f73	0.056945276
147	0x3dd52b21	0.10408617
148	0x3d0c0999	0.03418884
149	0xbc47d977	-0.012197844
150	0xbd5388fb	-0.051644307
151	0xbcb72989	-0.022358673
152	0x3d8154f8	0.06315035
153	0x3e1f7ca4	0.1557489
154	0x3edc6ef8	0.43053412
155	0xbd898fe8	-0.06716901
156	0xbd65bfe4	-0.056091204
157	0x3c61e340	0.013787091
158	0x3e16ad76	0.14714608
159	0x3e5cb9e0	0.2155528
160	0xbd82bf22	-0.06384112
161	0xbd69289f	-0.056923505
162	0xbc956415	-0.0182362
163	0x3d03d669	0.0321869
164	0x3e1de707	0.15420161
165	0xbd2d77d0	-0.04235059
166	0xbd0dbdb0	-0.03460473
167	0xbd30fa32	-0.043207355
168	0x3be36360	0.0069393367
169	0x3d8287f8	0.0637359
170	0xbd0188f9	-0.031624768
171	0x3b6c7541	0.003608063
172	0x3c062ac7	0.00818891
173	0xbca89280	-0.02057767
174	0xbbde2a89	-0.006779973
175	0xbd9fe15e	-0.07806657
176	0xbc4067e8	-0.011743523
177	0xbd56f411	-0.052478854
178	0xbccebfc9	-0.025237935
179	0xbd3eb5b9	-0.046560023
180	0xbd0e6a04	-0.034769073
181	0xba7a3452	-0.00095445395
182	0xbc59089c	-0.013246682
183	0xbc998193	-0.018738544
184	0x3d890f22	0.066923395
185	0xbd6563d0	-0.05600339
186	0xbd0b141a	-0.033954717
187	0x3d048daf	0.032361683
188	0x3d536f07	0.051619556
189	0x3dc138be	0.09434651
190	0xbd6bb927	-0.057549622
191	0x3b34b59a	0.0027574063
192	0x3d166f16	0.036727034
193	0x3d4dea2d	0.050272156
194	0x3db244c8	0.08704525
195	0x3d069ecf	0.032866295
196	0x3d8986cf	0.06715166
197	0x3db3ef1e	0.08785842
198	0x3d224f61	0.039626483
199	0x3dbd9fb0	0.092589736
200	0xbd4d56ac	-0.050131485
201	0xbccb97c5	-0.024852643
202	0x3c5dbf16	0.013534328
203	0x3d63faa8	0.055658966
204	0x3df23929	0.11827309
205	0xbcc7b2cd	-0.024377251
206	0xbcceb250	-0.02523151
207	0xbcb38bdc	-0.021917276
208	0x3d01106b	0.031509798
209	0x3d16454c	0.03668718
210	0xbbb35d7f	-0.005473792
211	0x3b88f738	0.0041798614
212	0xbcc0e094	-0.023544587
213	0xbd453026	-0.04814162
214	0xbc8715b7	-0.016489847
215	0x3c2cb898	0.010542057
216	0x3d2b1caf	0.0417754
217	0xbc6a0943	-0.014284435
218	0xbd9e3643	-0.07725193
219	0xbda69776	-0.08134358
220	0x3cb608fb	0.02222108
221	0x3c975cce	0.01847687
222	0xbc6a3591	-0.014294998
223	0xbd73e376	-0.059543096
224	0xbe06ff37	-0.13183294
225	0xbd52499f	-0.05133974
226	0xbe05ecfd	-0.13078685
227	0xbdc75156	-0.097323105
228	0xbd3549bb	-0.044259768
229	0xbcce3698	-0.025172517
230	0x3c2655b4	0.010152269
231	0xbd87cd1c	-0.066309184
232	0xbd8a3470	-0.06748283
233	0xbd562109	-0.0522776
234	0xbcd9c9f3	-0.026585555
235	0x3dfbdc92	0.1229793
236	0x3d57a687	0.052649047
237	0xbcbac543	-0.02279914
238	0xbd2d4349	-0.042300496
239	0xbd69ce75	-0.05708166
240	0x3e56f1e7	0.20990716
241	0x3e104d99	0.14092101
242	0x3da6d3c9	0.081458636
243	0x3c486b06	0.012232548
244	0xbd01ef31	-0.03172225
245	0x3eb85410	0.36001635
246	0x3e2d2afd	0.1691093
247	0x3e13e1ca	0.144416
248	0x3db978b7	0.09056228
249	0xbd8aaeb0	-0.067716
250	0x3db0d2bd	0.08633945
251	0x38ff81b8	0.000121835095
252	0xbd3efbb7	-0.046626773
253	0xbd3df606	-0.046377204
254	0xbda21c6c	-0.07915577
255	0x3c05c945	0.008165662

conv3.bias f4 [3]
0	0x3bff416a	0.0077897804
1	0x3c1ade1e	0.009452371
2	0x3bf87ee5	0.0075834864

exp_avg f4 [64, 3, 9, 9]
0	0xab8c750e	-9.980088e-13
1	0xab26f3b2	-5.931324e-13
2	0x356aa4da	8.7411684e-07
3	0x356aa4da	8.7411684e-07
4	0x35651457	8.5338746e-07
5	0x355bd5bf	8.18949e-07
6	0x355302fb	7.860796e-07
7	0x353c23e6	7.0087697e-07
8	0x351ad826	5.768401e-07
9	0xab8c750e	-9.980088e-13
10	0xaae28a67	-4.02417e-13
11	0x35ad7bd4	1.2925543e-06
12	0x35ad7bd4	1.2925543e-06
13	0x35abfb17	1.281357e-06
14	0x35a978a1	1.2626589e-06
15	0x35a798c4	1.248693e-06
16	0x359b09a2	1.1551203e-06
17	0x3588bf75	1.0188511e-06
18	0x35dc3cac	1.6408935e-06
19	0x35b75448	1.3659092e-06
20	0x362ba32b	2.5575962e-06
21	0x362c106e	2.563956e-06
22	0x362b0e05	2.5489146e-06
23	0x362e81aa	2.6003495e-06
24	0x363af34b	2.7857775e-06
25	0x365e1229	3.3091148e-06
26	0x366152b5	3.3575755e-06
27	0x35dcb299	1.6443256e-06
28	0x35b72ebc	1.3648164e-06
29	0x36297b1f	2.5254628e-06
30	0x3629b576	2.5288587e-06
31	0x36285071	2.5080774e-06
32	0x362b760c	2.5549698e-06
33	0x3637c460	2.738343e-06
34	0x365b73c7	3.2700934e-06
35	0x365ef359	3.3222225e-06
36	0x35fe3ec8	1.8942746e-06
37	0x35dfecfc	1.6683766e-06
38	0x363b7769	2.7934677e-06
39	0x363d9629	2.82506e-06
40	0x363cadaf	2.811528e-06
41	0x363f1bfe	2.8477511e-06
42	0x36491513	2.99636e-06
43	0x36668664	3.4350896e-06
44	0x366543db	3.4163156e-06
45	0x36122e08	2.178249e-06
46	0x36086491	2.0324117e-06
47	0x36502f10	3.102181e-06
48	0x3653b2a6	3.1545437e-06
49	0x3651f3e9	3.1285401e-06
50	0x36538f07	3.1524703e-06
51	0x365a18ce	3.249897e-06
52	0x36704de0	3.5808116e-06
53	0x3668837b	3.4647226e-06
54	0x36252e25	2.4613776e-06
55	0x361f0d62	2.3700636e-06
56	0x3663131a	3.3836754e-06
57	0x3668a6f9	3.4667885e-06
58	0x3666813a	3.434789e-06
59	0x36661e76	3.4290401e-06
60	0x36692a52	3.474434e-06
61	0x3678f520	3.7097561e-06
62	0x366b71d0	3.5083976e-06
63	0x362e2acf	2.5952938e-06
64	0x362b6e57	2.5545212e-06
65	0x363777a4	2.7338765e-06
66	0x363f0283	2.846268e-06
67	0x363ee1ac	2.8443565e-06
68	0x363f6c66	2.8524314e-06
69	0x364198ea	2.8848249e-06
70	0x3651df62	3.1273453e-06
71	0x3642c994	2.9025587e-06
72	0x3633053f	2.6676132e-06
73	0x363328e2	2.6696875e-06
74	0x36307fb8	2.6300386e-06
75	0x36396980	2.7628557e-06
76	0x363aae69	2.781768e-06
77	0x363b448e	2.7905076e-06
78	0x363d7f00	2.8237118e-06
79	0x364ff761	3.0989397e-06
80	0x36411609	2.8772067e-06
81	0xab912b7a	-1.0314937e-12
82	0xab5b7eeb	-7.7980564e-13
83	0xb48a6612	-2.577877e-07
84	0xb48a6612	-2.577877e-07
85	0xb4a1de51	-3.0150343e-07
86	0xb4bb097b	-3.4838362e-07
87	0xb4d629c6	-3.9891e-07
88	0xb4f23512	-4.5114626e-07
89	0xb505ee0b	-4.989276e-07
90	0xab8c750e	-9.980088e-13
91	0xab5b7eeb	-7.7980564e-13
92	0x340560f6	1.2421864e-07
93	0x340560f6	1.2421864e-07
94	0x339cee50	7.307665e-08
95	0x32a1b180	1.8823584e-08
96	0xb3279f40	-3.9027555e-08
97	0xb3da44fd	-1.0163965e-07
98	0xb42deaeb	-1.6197343e-07
99	0x34a9b8a5	3.161305e-07
100	0x342b10d5	1.593174e-07
101	0x35116acf	5.4172136e-07
102	0x3514dd07	5.5455934e-07
103	0x350036f1	4.7763666e-07
104	0x34f626fd	4.5849438e-07
105	0x3516c827	5.6170614e-07
106	0x35030eb7	4.8822716e-07
107	0x3505c256	4.9829157e-07
108	0x34a6b110	3.104874e-07
109	0x34256380	1.540302e-07
110	0x35115e83	5.415424e-07
111	0x3514bb4c	5.540685e-07
112	0x34ff9c91	4.7611368e-07
113	0x34edf72d	4.4324534e-07
114	0x35112f16	5.408523e-07
115	0x34fd4d2e	4.7181078e-07
116	0x35017f3f	4.824141e-07
117	0x350b9adf	5.20069e-07
118	0x34db46ab	4.0843346e-07
119	0x3547edc5	7.4479277e-07
120	0x354cea35	7.633674e-07
121	0x3536e91c	6.81395e-07
122	0x352b7bf5	6.3882845e-07
123	0x3541f6af	7.2257075e-07
124	0x351cc630	5.840293e-07
125	0x350e4158	5.299421e-07
126	0x3549a802	7.512282e-07
127	0x35397f74	6.910334e-07
128	0x357ff836	9.5356097e-07
129	0x35827b02	9.721555e-07
130	0x356b3802	8.7625824e-07
131	0x356203a5	8.4196864e-07
132	0x356ed96c	8.89783e-07
133	0x3537ccd8	6.84709e-07
134	0x3513fcb4	5.51295e-07
135	0x35843e65	9.852926e-07
136	0x3581be26	9.66659e-07
137	0x359aa809	1.1522799e-06
138	0x359f0172	1.1846844e-06
139	0x35903a0f	1.0745733e-06
140	0x358979f0	1.0242784e-06
141	0x358c582f	1.0456478e-06
142	0x354cf11f	7.63468e-07
143	0x3513db70	5.508109e-07
144	0x35984a85	1.134657e-06
145	0x359ce907	1.1690726e-06
146	0x3578f27d	9.2740066e-07
147	0x35834834	9.781274e-07
148	0x356f0a05	8.904902e-07
149	0x35637128	8.4728754e-07
150	0x3566c13f	8.5962887e-07
151	0x35162a4c	5.5940905e-07
152	0x34a0a947	2.9925488e-07
153	0x35ab8c69	1.2781358e-06
154	0x35b4ef20	1.348064e-06
155	0x35852c8a	9.922235e-07
156	0x358f50f3	1.067789e-06
157	0x3586cb7b	1.0042999e-06
158	0x357f111a	9.501979e-07
159	0x357ee9f2	9.496281e-07
160	0x3531ffb0	6.630971e-07
161	0x34c4d6fb	3.6664264e-07
162	0xa9e2349e	-1.0045544e-13
163	0xa9e2349e	-1.0045544e-13
164	0xb584c73b	-9.89275e-07
165	0xb584c73b	-9.89275e-07
166	0xb581a3ed	-9.658958e-07
167	0xb57fdb8c	-9.5314385e-07
168	0xb57aec8a	-9.3476467e-07
169	0xb58279aa	-9.721164e-07
170	0xb58b4e8d	-1.0379168e-06
171	0xa996cdbf	-6.6970294e-14
172	0xa996cdba	-6.697026e-14
173	0xb55a9e7b	-8.144195e-07
174	0xb55a9e7b	-8.144195e-07
175	0xb554ac65	-7.922702e-07
176	0xb550866c	-7.768165e-07
177	0xb54aea89	-7.559216e-07
178	0xb558677f	-8.0616877e-07
179	0xb56b3068	-8.761476e-07
180	0xb40db978	-1.3199121e-07
181	0xb4b42417	-3.3553872e-07
182	0xb5922896	-1.088966e-06
183	0xb59a7fa8	-1.1511047e-06
184	0xb59ec250	-1.182847e-06
185	0xb597e596	-1.1317195e-06
186	0xb572c5fc	-9.044013e-07
187	0xb5185164	-5.674285e-07
188	0xb4c5c56e	-3.6837758e-07
189	0xb4118b0e	-1.3554765e-07
190	0xb4b500d8	-3.371449e-07
191	0xb58d34f3	-1.0520729e-06
192	0xb595b746	-1.1154705e-06
193	0xb59bea91	-1.1616668e-06
194	0xb595c0ca	-1.1157474e-06
195	0xb5712976	-8.983983e-07
196	0xb515cf73	-5.5808704e-07
197	0xb4c79e0e	-3.7181638e-07
198	0xb33bc391	-4.3717197e-08
199	0xb463f18c	-2.1228897e-07
200	0xb57eaad4	-9.487096e-07
201	0xb584db78	-9.89864e-07
202	0xb58b066e	-1.0358178e-06
203	0xb5833317	-9.77513e-07
204	0xb54e9dd4	-7.697065e-07
205	0xb503ec51	-4.914519e-07
206	0xb4d32523	-3.9328833e-07
207	0x3359205d	5.0553684e-08
208	0xb38ada25	-6.465806e-08
209	0xb567aa0f	-8.6301674e-07
210	0xb56eb7b3	-8.8929227e-07
211	0xb57a3dcb	-9.322218e-07
212	0xb5687a69	-8.6604865e-07
213	0xb533019b	-6.668503e-07
214	0xb4fdc075	-4.7264953e-07
215	0xb4f40fd8	-4.546007e-07
216	0x3416b88b	1.4036975e-07
217	0x33825a5d	6.070034e-08
218	0xb5551537	-7.9379555e-07
219	0xb5537143	-7.876844e-07
220	0xb55cdbe4	-8.227637e-07
221	0xb54acbe5	-7.554757e-07
222	0xb517d643	-5.6563675e-07
223	0xb4efa2c5	-4.463565e-07
224	0xb50e8905	-5.309851e-07
225	0x34733afc	2.2652597e-07
226	0x34595462	2.0240398e-07
227	0xb5863195	-9.998208e-07
228	0xb582967d	-9.729553e-07
229	0xb5840802	-9.837097e-07
230	0xb575adb2	-9.152237e-07
231	0xb5436aa5	-7.279835e-07
232	0xb5295643	-6.3082933e-07
233	0xb552af9a	-7.848663e-07
234	0x34af788e	3.2684005e-07
235	0x34bdf46c	3.5381834e-07
236	0xb572431f	-9.02497e-07
237	0xb563e03e	-8.4890405e-07
238	0xb5635497	-8.4687184e-07
239	0xb5501718	-7.7519644e-07
240	0xb51cfa58	-5.8478827e-07
241	0xb5029e0e	-4.8658774e-07
242	0xb53c635d	-7.018005e-07
243	0x35b36fd5	1.3369087e-06
244	0x35c7be74	1.4882085e-06
245	0x36521d38	3.1309446e-06
246	0x364c4362	3.043759e-06
247	0x364171e0	2.8825525e-06
248	0x363aec98	2.7853876e-06
249	0x3630cf56	2.634673e-06
250	0x369ecb30	4.732421e-06
251	0x36939fa6	4.399527e-06
252	0x35c22ccb	1.4467163e-06
253	0x35d83709	1.6109271e-06
254	0x36643e20	3.401081e-06
255	0x365c2df7	3.280931e-06

exp_avg_sq f4 [64, 3, 9, 9]
0	0x23830634	1.4205676e-17
1	0x2443e0fb	4.247445e-17
2	0x301f3bce	5.792885e-10
3	0x301f3b4f	5.7928146e-10
4	0x301ec836	5.776458e-10
5	0x301e7a3b	5.7653765e-10
6	0x301e5a85	5.76087e-10
7	0x301da489	5.7350086e-10
8	0x301cd38a	5.7053084e-10
9	0x23cf90b5	2.250427e-17
10	0x249cfb59	6.8080015e-17
11	0x3029d009	6.177748e-10
12	0x3029cf65	6.1776567e-10
13	0x30295179	6.159762e-10
14	0x3028f7ea	6.147035e-10
15	0x3028d06d	6.1414235e-10
16	0x3027ea6a	6.108737e-10
17	0x3026dc8e	6.0703875e-10
18	0x313df656	2.7643146e-09
19	0x314956ca	2.9298683e-09
20	0x319a7b39	4.4959987e-09
21	0x319ac873	4.5047783e-09
22	0x319ad16b	4.505798e-09
23	0x319abace	4.503227e-09
24	0x319a9214	4.498597e-09
25	0x3193c4c7	4.300634e-09
26	0x318ca4bd	4.093265e-09
27	0x313df7cd	2.7643978e-09
28	0x31495951	2.930012e-09
29	0x319a9159	4.498514e-09
30	0x319adf2b	4.507361e-09
31	0x319aea55	4.5086304e-09
32	0x319ad519	4.5062163e-09
33	0x319aadde	4.5017563e-09
34	0x3193dfe6	4.3037174e-09
35	0x318cbcbf	4.095994e-09
36	0x313da8ac	2.7598999e-09
37	0x3148f575	2.9243357e-09
38	0x319a5563	4.4916972e-09
39	0x319aa118	4.500304e-09
40	0x319aab8a	4.5014916e-09
41	0x319a9ac8	4.4995865e-09
42	0x319a77dc	4.4956163e-09
43	0x3193b3ba	4.2986956e-09
44	0x318c9ca1	4.092343e-09
45	0x313daabd	2.7600173e-09
46	0x3148e4dc	2.9233922e-09
47	0x319a389a	4.4884247e-09
48	0x319a7fa9	4.496503e-09
49	0x319a87f6	4.497447e-09
50	0x319a7890	4.4956963e-09
51	0x319a59b5	4.4921884e-09
52	0x31939f11	4.296347e-09
53	0x318c9517	4.091486e-09
54	0x313e0088	2.764894e-09
55	0x3149307d	2.9276912e-09
56	0x319a40c8	4.4893547e-09
57	0x319a8118	4.496666e-09
58	0x319a84cd	4.4970876e-09
59	0x319a775d	4.49556e-09
60	0x319a5d1a	4.4925743e-09
61	0x3193ab50	4.297739e-09
62	0x318cae4a	4.0943506e-09
63	0x313d4034	2.7539615e-09
64	0x3148545c	2.9151783e-09
65	0x31985b26	4.4341446e-09
66	0x31989744	4.440979e-09
67	0x31989be2	4.441504e-09
68	0x31989146	4.440298e-09
69	0x31987b57	4.4378043e-09
70	0x3191dfb7	4.245489e-09
71	0x318b090e	4.046462e-09
72	0x313c569b	2.740683e-09
73	0x31474b1d	2.9001008e-09
74	0x31976b00	4.406843e-09
75	0x3197a468	4.4133692e-09
76	0x3197a716	4.413674e-09
77	0x31979fad	4.4128314e-09
78	0x31978a9b	4.410436e-09
79	0x3190ffd5	4.2200363e-09
80	0x318a4156	4.0237564e-09
81	0x240e5bef	3.0869212e-17
82	0x24d60f1d	9.283331e-17
83	0x2fd1fa85	3.8194883e-10
84	0x2fd1f981	3.8194162e-10
85	0x2fd1206d	3.8039918e-10
86	0x2fd091ef	3.7938672e-10
87	0x2fd06939	3.7909745e-10
88	0x2fcf4c17	3.7707146e-10
89	0x2fce018c	3.747228e-10
90	0x2454dcb4	4.6157115e-17
91	0x2521c862	1.4032416e-16
92	0x2fe0338c	4.078199e-10
93	0x2fe0327c	4.0781234e-10
94	0x2fdf388f	4.060365e-10
95	0x2fde919e	4.0485032e-10
96	0x2fde5456	4.044149e-10
97	0x2fdcf416	4.01912e-10
98	0x2fdb54c7	3.9896106e-10
99	0x30fd13cb	1.8413798e-09
100	0x31065e14	1.9553044e-09
101	0x314c0e91	2.9694187e-09
102	0x314cb700	2.978993e-09
103	0x314cfeec	2.9830813e-09
104	0x314d058e	2.9834584e-09
105	0x314cde5e	2.9812308e-09
106	0x31442916	2.8545108e-09
107	0x313ac8d5	2.7180722e-09
108	0x30fd1554	1.8414235e-09
109	0x31065ef4	1.955354e-09
110	0x314c230a	2.9705824e-09
111	0x314cccf4	2.980241e-09
112	0x314d1791	2.9844822e-09
113	0x314d1ff2	2.9849585e-09
114	0x314cfae7	2.9828529e-09
115	0x314449a2	2.856361e-09
116	0x313aea1c	2.7199638e-09
117	0x30fc11ae	1.8340438e-09
118	0x3105c2db	1.946481e-09
119	0x314b5c26	2.9592768e-09
120	0x314bfb9b	2.968341e-09
121	0x314c41ac	2.9723237e-09
122	0x314c4b77	2.9728804e-09
123	0x314c2e0f	2.9712088e-09
124	0x31438ec4	2.8457388e-09
125	0x313a4278	2.7104345e-09
126	0x30fb9506	1.8305009e-09
127	0x31056cad	1.9415822e-09
128	0x314acc18	2.9510883e-09
129	0x314b5d15	2.95933e-09
130	0x314b9696	2.9625986e-09
131	0x314b9e62	2.9630418e-09
132	0x314b86da	2.9617042e-09
133	0x3142f7d4	2.837159e-09
134	0x3139bdc5	2.7028915e-09
135	0x30fbb138	1.8313022e-09
136	0x310567ea	1.9413116e-09
137	0x314a788d	2.9463394e-09
138	0x314afa31	2.9537086e-09
139	0x314b285b	2.9563327e-09
140	0x314b2e5e	2.9566745e-09
141	0x314b1c95	2.9556635e-09
142	0x31429867	2.8317346e-09
143	0x3139714e	2.698545e-09
144	0x30fa27af	1.8201173e-09
145	0x3104874d	1.9285438e-09
146	0x3147ad50	2.9056828e-09
147	0x31481f02	2.9121456e-09
148	0x3148433b	2.9142047e-09
149	0x3148455d	2.914326e-09
150	0x31483255	2.913244e-09
151	0x313fcd10	2.7910723e-09
152	0x3136d91a	2.6607894e-09
153	0x30f87573	1.8077756e-09
154	0x31039280	1.9146285e-09
155	0x314633e8	2.8842297e-09
156	0x3146988f	2.8899512e-09
157	0x3146ad92	2.8911455e-09
158	0x3146a6e8	2.8907667e-09
159	0x31468c71	2.8892624e-09
160	0x313e4054	2.7685205e-09
161	0x31357160	2.6403413e-09
162	0x24416b96	4.1941333e-17
163	0x2517b342	1.3157897e-16
164	0x2f88e9cf	2.4904387e-10
165	0x2f88e8cc	2.4903668e-10
166	0x2f87c860	2.4698732e-10
167	0x2f86f004	2.4545e-10
168	0x2f8681ad	2.4466598e-10
169	0x2f8551d6	2.4250707e-10
170	0x2f841898	2.4028135e-10
171	0x2496e80c	6.544523e-17
172	0x25734ceb	2.1102951e-16
173	0x2f92e4c2	2.6719787e-10
174	0x2f92e3c4	2.6719083e-10
175	0x2f91a824	2.6494817e-10
176	0x2f90b56b	2.6322353e-10
177	0x2f903545	2.6231298e-10
178	0x2f8ec176	2.5967112e-10
179	0x2f8d3bd8	2.5690272e-10
180	0x30a423b7	1.1942721e-09
181	0x30ae75b7	1.2693623e-09
182	0x3103e18a	1.9191213e-09
183	0x31046a57	1.9268975e-09
184	0x31049087	1.9290682e-09
185	0x310482b4	1.9282824e-09
186	0x310459a4	1.9259483e-09
187	0x30fd810f	1.8444853e-09
188	0x30f11473	1.754087e-09
189	0x30a42256	1.1942329e-09
190	0x30ae7583	1.2693565e-09
191	0x3103fcc5	1.9206692e-09
192	0x3104857b	1.9284403e-09
193	0x3104adf7	1.9307416e-09
194	0x3104a476	1.9302013e-09
195	0x31047ce6	1.9279525e-09
196	0x30fdcb48	1.8465949e-09
197	0x30f15afd	1.7560918e-09
198	0x30a2f89b	1.1857709e-09
199	0x30ad193e	1.2594581e-09
200	0x31034082	1.9099677e-09
201	0x3103c1d8	1.9173196e-09
202	0x3103eb2a	1.9196684e-09
203	0x3103e64b	1.9193915e-09
204	0x3103c6ec	1.9176083e-09
205	0x30fc7b64	1.8370483e-09
206	0x30f0274e	1.7473469e-09
207	0x30a2590e	1.1812362e-09
208	0x30ac4ccb	1.2536473e-09
209	0x3102c109	1.9027218e-09
210	0x31033662	1.9093922e-09
211	0x31035832	1.9113142e-09
212	0x310354c1	1.9111186e-09
213	0x31033cce	1.9097572e-09
214	0x30fb80de	1.829928e-09
215	0x30ef45ca	1.7409374e-09
216	0x30a2614f	1.1814708e-09
217	0x30ac35be	1.2529922e-09
218	0x31028d41	1.8997783e-09
219	0x3102f642	1.9057471e-09
220	0x310310ef	1.9072635e-09
221	0x31030d50	1.9070576e-09
222	0x3102f911	1.9059068e-09
223	0x30fb0f0a	1.8266928e-09
224	0x30eee9ad	1.7383194e-09
225	0x30a0d0a0	1.1700827e-09
226	0x30aa7c0c	1.2404384e-09
227	0x31004e6a	1.8671025e-09
228	0x3100ad71	1.8725042e-09
229	0x3100c52a	1.8738526e-09
230	0x3100c3b5	1.8737698e-09
231	0x3100b34a	1.8728366e-09
232	0x30f6bbab	1.7952194e-09
233	0x30eae7f3	1.7091665e-09
234	0x309f2034	1.1577925e-09
235	0x30a89de9	1.226849e-09
236	0x30fdc815	1.846504e-09
237	0x30fe7dcc	1.8516686e-09
238	0x30fea012	1.8526427e-09
239	0x30fe940f	1.8523013e-09
240	0x30fe6e2d	1.8512246e-09
241	0x30f3fb2e	1.7751967e-09
242	0x30e86fb2	1.6911967e-09
243	0x300c52af	5.1049204e-10
244	0x300f1541	5.20533e-10
245	0x301b527e	5.65059e-10
246	0x3013382e	5.3558125e-10
247	0x300590aa	4.85907e-10
248	0x2fecd010	4.3075987e-10
249	0x2fd10a99	3.802441e-10
250	0x2fa209cb	2.9474587e-10
251	0x2f8f0773	2.6016841e-10
252	0x30130841	5.349002e-10
253	0x30150c27	5.4223154e-10
254	0x30211148	5.8596017e-10
255	0x3016fae4	5.492622e-10

exp_avg f4 [64]
0	0xb54d22a1	-7.641884e-07
1	0x36b3aa6f	5.354457e-06
2	0x00000004	6e-45
3	0x00000004	6e-45
4	0xb715379e	-8.8940415e-06
5	0x00000004	6e-45
6	0x370c1e62	8.351724e-06
7	0x355e642e	8.2847225e-07
8	0xb6f00636	-7.1532804e-06
9	0x00000004	6e-45
10	0x00000004	6e-45
11	0xb734b74a	-1.0771511e-05
12	0x00000004	6e-45
13	0x00000004	6e-45
14	0xb7345fd7	-1.07511505e-05
15	0xb6e5670d	-6.8367285e-06
16	0xb6def10d	-6.6441776e-06
17	0x37f91332	2.9692052e-05
18	0xb71d819e	-9.388108e-06
19	0xb59d1a56	-1.1705076e-06
20	0x00000004	6e-45
21	0x374398e6	1.1658505e-05
22	0x00000004	6e-45
23	0x380e9194	3.399102e-05
24	0x3742fc1f	1.1622003e-05
25	0x00000004	6e-45
26	0x00000004	6e-45
27	0x37769444	1.4697263e-05
28	0x00000004	6e-45
29	0x00000004	6e-45
30	0x35ced6ab	1.5410673e-06
31	0x00000004	6e-45
32	0x386c6c98	5.636792e-05
33	0xb51b8cb0	-5.7946727e-07
34	0x360b79f0	2.078359e-06
35	0x371e230d	9.425695e-06
36	0x3630fe67	2.6374125e-06
37	0xb7c4ef01	-2.3476316e-05
38	0x35a22a91	1.2082329e-06
39	0x00000004	6e-45
40	0x00000004	6e-45
41	0xb6710b8d	-3.5918522e-06
42	0x3687a84b	4.0429054e-06
43	0xb699cf54	-4.5838915e-06
44	0xb509e885	-5.137484e-07
45	0x00000004	6e-45
46	0x00000004	6e-45
47	0x00000004	6e-45
48	0x365b2402	3.2654502e-06
49	0x376344fb	1.3546315e-05
50	0x368fee53	4.2894767e-06
51	0x37efcc0f	2.8586042e-05
52	0x37dcada4	2.6306901e-05
53	0x37890019	1.6331718e-05
54	0xb7c42c0e	-2.3385535e-05
55	0x3792dc07	1.7507014e-05
56	0x360a58ce	2.0615294e-06
57	0xb563e3ea	-8.489575e-07
58	0xb6830661	-3.904847e-06
59	0x366bc3f6	3.5131793e-06
60	0x00000004	6e-45
61	0x00000004	6e-45
62	0x37e03696	2.67283e-05
63	0x396b61ce	0.00022447782

exp_avg_sq f4 [64]
0	0x32347190	1.05032e-08
1	0x30b5e882	1.3235566e-09
2	0x000001f4	7e-43
3	0x000001f4	7e-43
4	0x311594c1	2.176691e-09
5	0x000001f4	7e-43
6	0x322c2704	1.0020589e-08
7	0x30e298f6	1.6487138e-09
8	0x30572376	7.826694e-10
9	0x000001f4	7e-43
10	0x000001f4	7e-43
11	0x31d4dbe4	6.1950107e-09
12	0x000001f4	7e-43
13	0x000001f4	7e-43
14	0x3453ca06	1.9724402e-07
15	0x30da04bd	1.5862934e-09
16	0x35887d28	1.0169215e-06
17	0x33793c46	5.802965e-08
18	0x329f45d5	1.8541792e-08
19	0x327a4668	1.4567924e-08
20	0x000001f4	7e-43
21	0x310bafe6	2.0327149e-09
22	0x000001f4	7e-43
23	0x32dceb10	2.5718265e-08
24	0x32520d36	1.2226613e-08
25	0x000001f4	7e-43
26	0x000001f4	7e-43
27	0x332b448f	3.9876394e-08
28	0x000001f4	7e-43
29	0x000001f4	7e-43
30	0x2e86c112	6.127911e-11
31	0x000001f4	7e-43
32	0x33e9524b	1.0864877e-07
33	0x3113d71a	2.1513586e-09
34	0x3156da68	3.1265248e-09
35	0x313566a3	2.6397309e-09
36	0x3117427d	2.2011186e-09
37	0x3383d4d1	6.138874e-08
38	0x3289585e	1.5989084e-08
39	0x000001f4	7e-43
40	0x000001f4	7e-43
41	0x32fb185a	2.923132e-08
42	0x313089e3	2.568975e-09
43	0x2fc1c22c	3.5244463e-10
44	0x3098fc2d	1.1131128e-09
45	0x000001f4	7e-43
46	0x000001f4	7e-43
47	0x000001f4	7e-43
48	0x310d3130	2.054616e-09
49	0x32dcadf7	2.569048e-08
50	0x33220192	3.7719992e-08
51	0x32cbd54f	2.3729312e-08
52	0x31b200e5	5.1805835e-09
53	0x32c85c5c	2.3325065e-08
54	0x3435541c	1.6887537e-07
55	0x34c0c520	3.5906214e-07
56	0x31dd8f8b	6.4482655e-09
57	0x32130a24	8.558832e-09
58	0x303912c9	6.7329303e-10
59	0x31842417	3.8458086e-09
60	0x000001f4	7e-43
61	0x000001f4	7e-43
62	0x338753ea	6.301691e-08
63	0x35db343d	1.6331975e-06

exp_avg f4 [32, 64, 1, 1]
0	0xb7b3837c	-2.139969e-05
1	0x376369cf	1.355489e-05
2	0x00000004	6e-45
3	0x00000004	6e-45
4	0xb593d819	-1.1015246e-06
5	0x00000004	6e-45
6	0x378e9f6a	1.7001952e-05
7	0x37cc011d	2.4319213e-05
8	0xb80b0136	-3.314131e-05
9	0x00000004	6e-45
10	0x00000004	6e-45
11	0xb7d727ed	-2.564859e-05
12	0x00000004	6e-45
13	0x00000000	0.0
14	0x3975750e	0.00023408627
15	0x3652734c	3.135955e-06
16	0x3942e102	0.00018585104
17	0xb8264201	-3.9638955e-05
18	0x36c84309	5.9682684e-06
19	0x38a0710c	7.650451e-05
20	0x00000004	6e-45
21	0xb6087b01	-2.0337177e-06
22	0x00000004	6e-45
23	0x384468e7	4.682774e-05
24	0x3712d9d6	8.752997e-06
25	0x00000004	6e-45
26	0x00000004	6e-45
27	0x36cebed7	6.161495e-06
28	0x00000004	6e-45
29	0x00000004	6e-45
30	0xb592a125	-1.0924747e-06
31	0x00000004	6e-45
32	0x3805d950	3.191206e-05
33	0xb81a7def	-3.6833746e-05
34	0x36da26fd	6.501445e-06
35	0xb7be5c46	-2.2692733e-05
36	0xb7cfa0b1	-2.475115e-05
37	0x387c768c	6.0191887e-05
38	0xb846f877	-4.743828e-05
39	0x80000004	-6e-45
40	0x80000004	-6e-45
41	0xb7842f79	-1.5757732e-05
42	0xb74c724b	-1.2185958e-05
43	0x343ceca5	1.7594955e-07
44	0xb6946b1a	-4.423212e-06
45	0x00000004	6e-45
46	0x00000004	6e-45
47	0x00000000	0.0
48	0x36a2fe61	4.85759e-06
49	0x38552eab	5.082662e-05
50	0x386ca7cd	5.642306e-05
51	0xb8a8ed91	-8.0551144e-05
52	0x37cb59b7	2.4241263e-05
53	0xb71675d5	-8.968132e-06
54	0xb9154121	-0.0001423401
55	0x39819c01	0.0002472103
56	0xb699356d	-4.565975e-06
57	0xb7c65116	-2.3641198e-05
58	0x3488dc5c	2.5492307e-07
59	0x36069708	2.0055468e-06
60	0x00000004	6e-45
61	0x00000000	0.0
62	0x37802441	1.5275671e-05
63	0xb99884f9	-0.00029090772
64	0x388fbf03	6.85435e-05
65	0xb7d28eea	-2.51005e-05
66	0x00000004	6e-45
67	0x00000000	0.0
68	0xb483e2cd	-2.456567e-07
69	0x00000004	6e-45
70	0x39e89e99	0.00044368653
71	0x381b7000	3.7059188e-05
72	0x383f7a71	4.565198e-05
73	0x80000004	-6e-45
74	0x80000004	-6e-45
75	0x385ba1d5	5.2364387e-05
76	0x00000004	6e-45
77	0x00000000	0.0
78	0x3a77fc5f	0.00094599085
79	0x3714e2f7	8.874332e-06
80	0x3abdf316	0.0014492001
81	0x38dcf9c2	0.000105369385
82	0x38a6d756	7.955606e-05
83	0x3918759c	0.00014539663
84	0x00000000	0.0
85	0x36c61d30	5.9042577e-06
86	0x80000004	-6e-45
87	0x389a3ba7	7.354403e-05
88	0x392868a4	0.0001606071
89	0x00000000	0.0
90	0x00000000	0.0
91	0x39dffc37	0.0004272179
92	0x00000000	0.0
93	0x00000000	0.0
94	0x3695319b	4.446321e-06
95	0x00000000	0.0
96	0x3a4b53fd	0.00077563507
97	0xb834c8c5	-4.3102325e-05
98	0x3742dfd0	1.16154115e-05
99	0x3743bb12	1.1666461e-05
100	0x3822e35f	3.8835566e-05
101	0x3a2ce315	0.0006595117
102	0x39644011	0.00021767641
103	0x00000004	6e-45
104	0x00000004	6e-45
105	0x398b8f11	0.0002661874
106	0xb7e62fce	-2.7440397e-05
107	0x36d7e173	6.433745e-06
108	0x378a3f52	1.6480368e-05
109	0x00000000	0.0
110	0x00000000	0.0
111	0x00000000	0.0
112	0x36c05bd5	5.7327366e-06
113	0x390db8ca	0.00013515647
114	0x39caaf8c	0.00038659235
115	0x3a3a2480	0.0007100776
116	0x3817b762	3.6171994e-05
117	0x397f6786	0.0002435726
118	0x3a4d64d4	0.0007835154
119	0x3af9c3a8	0.0019055502
120	0x37de9c6a	2.6537298e-05
121	0x39dcf2b8	0.0004214251
122	0x36f874f6	7.404592e-06
123	0x38115294	3.46476e-05
124	0x00000004	6e-45
125	0x00000000	0.0
126	0x39ddda23	0.0004231493
127	0x3b36fd40	0.0027921945
128	0x3862e5c7	5.4096596e-05
129	0x3701b2fd	7.730673e-06
130	0x00000004	6e-45
131	0x00000004	6e-45
132	0xb4864352	-2.5008427e-07
133	0x00000004	6e-45
134	0x382d0b3a	4.125687e-05
135	0x37d2423d	2.5064795e-05
136	0xb704d19f	-7.916619e-06
137	0x00000004	6e-45
138	0x80000004	-6e-45
139	0xb81b75a6	-3.706445e-05
140	0x80000004	-6e-45
141	0x00000000	0.0
142	0x39a79f01	0.0003197119
143	0x356dd9ac	8.8606134e-07
144	0xb9dc797d	-0.00042052186
145	0xb82be0d5	-4.0978968e-05
146	0x38f5e457	0.00011725042
147	0x3879efc5	5.958953e-05
148	0x00000000	0.0
149	0xb6cbe277	-6.0762354e-06
150	0x00000004	6e-45
151	0x38e59757	0.0001094776
152	0xb8093421	-3.2711894e-05
153	0x00000000	0.0
154	0x00000004	6e-45
155	0x38358340	4.3276e-05
156	0x80000004	-6e-45
157	0x00000004	6e-45
158	0xb4b522dd	-3.3739244e-07
159	0x00000004	6e-45
160	0xb97b0b46	-0.00023941425
161	0xb8885705	-6.501194e-05
162	0x372a1a1e	1.01388705e-05
163	0xb7937f4e	-1.7583046e-05
164	0xb7e1ecec	-2.6932415e-05
165	0x39481367	0.00019080714
166	0xb9827c02	-0.00024887925
167	0x00000004	6e-45
168	0x80000004	-6e-45
169	0x37bd12a0	2.2539229e-05
170	0xb82143df	-3.84486e-05
171	0x370eeff0	8.519724e-06
172	0x3639dd90	2.7696115e-06
173	0x80000004	-6e-45
174	0x00000000	0.0
175	0x00000004	6e-45
176	0xb60a543f	-2.061264e-06
177	0x390f9052	0.00013691306
178	0xb8aa9199	-8.1333514e-05
179	0x38b62e8c	8.687106e-05
180	0x38598872	5.1863906e-05
181	0xb83f9537	-4.5676916e-05
182	0xba07b94b	-0.0005177452
183	0x39d25bba	0.00040122663
184	0xb8077dc9	-3.2303655e-05
185	0x3821d114	3.858011e-05
186	0x36febf10	7.5920325e-06
187	0xb6f8ac14	-7.4110085e-06
188	0x00000004	6e-45
189	0x00000004	6e-45
190	0x35c9a131	1.502258e-06
191	0x39875f37	0.00025820147
192	0x00000004	6e-45
193	0x00000004	6e-45
194	0x00000004	6e-45
195	0x00000004	6e-45
196	0x00000004	6e-45
197	0x00000000	0.0
198	0x00000004	6e-45
199	0x00000004	6e-45
200	0x00000004	6e-45
201	0x00000004	6e-45
202	0x00000004	6e-45
203	0x00000004	6e-45
204	0x00000004	6e-45
205	0x00000000	0.0
206	0x80000004	-6e-45
207	0x00000004	6e-45
208	0x00000004	6e-45
209	0x00000004	6e-45
210	0x00000004	6e-45
211	0x00000004	6e-45
212	0x00000004	6e-45
213	0x00000004	6e-45
214	0x00000004	6e-45
215	0x00000004	6e-45
216	0x00000004	6e-45
217	0x80000004	-6e-45
218	0x00000004	6e-45
219	0x00000004	6e-45
220	0x00000004	6e-45
221	0x00000004	6e-45
222	0x00000004	6e-45
223	0x00000004	6e-45
224	0x00000004	6e-45
225	0x00000004	6e-45
226	0x00000004	6e-45
227	0x00000004	6e-45
228	0x00000004	6e-45
229	0x00000004	6e-45
230	0x00000004	6e-45
231	0x00000004	6e-45
232	0x00000004	6e-45
233	0x00000004	6e-45
234	0x00000004	6e-45
235	0x00000004	6e-45
236	0x00000004	6e-45
237	0x00000004	6e-45
238	0x00000004	6e-45
239	0x00000004	6e-45
240	0x00000004	6e-45
241	0x00000004	6e-45
242	0x00000004	6e-45
243	0x00000004	6e-45
244	0x00000004	6e-45
245	0x00000004	6e-45
246	0x00000004	6e-45
247	0x00000004	6e-45
248	0x00000004	6e-45
249	0x00000004	6e-45
250	0x00000004	6e-45
251	0x00000004	6e-45
252	0x00000004	6e-45
253	0x00000004	6e-45
254	0x00000004	6e-45
255	0x00000004	6e-45
