ClassNote/digit10_net.pt (torch, 181701 bytes, 10 tensors)

conv1.weight f4 [6, 1, 5, 5]
0.116612054 -0.058456875 0.1286573 -0.04984722 0.14195883 -0.20567878 -0.16903932 -0.18684137
-0.08096284 0.02803797 -0.19315432 -0.0018685136 -0.1857753 -0.03642204 0.12287771 -0.1081934
-0.14125851 -0.21905768 -0.057065044 0.103713736 0.16401127 -0.12053379 -0.017958106 0.14086254
0.012931227 -0.003259571 0.0052121817 0.021224312 -0.025967544 0.21714328 0.07141494 0.03623108
-0.050546512 0.059297238 0.15841904 0.11364421 -0.12290652 -0.16298634 0.080917835 -0.005775854
-0.038976412 -0.00560965 0.022184657 -0.035398368 0.1303534 -0.10225304 -0.17313953 0.13398011
-0.099359736 -0.13040367 0.07333977 0.13552931 0.028441012 -0.05689116 0.16311246 -0.006439271
-0.11269799 -0.056252003 -0.13716486 -0.020098438 0.15007764 -0.05802898 -0.11340164 -0.14712015
-0.16003239 0.1251312 -0.08119945 0.17009458 -0.17972855 -0.04419718 -0.0029904658 0.16776736
0.09693025 -0.0046282373 -0.10296843 0.019471835 -0.1585326 0.22084464 0.16425288 0.045393825
0.13313696 -0.13463381 0.008176967 0.119320005 -0.029507691 0.2595198 0.14702336 0.2462742
0.23533523 -0.16754144 0.2249358 0.12084349 -0.020703942 -0.110055946 0.1846858 0.2142107
-0.12933525 0.03637844 -0.0635828 -0.021710698 -0.15489064 -0.15473008 -0.093944415 0.22281377
-0.022926282 0.082092516 -0.012845469 -0.0063401437 0.1887556 -0.17110716 -0.029482158 0.086276054
0.019624082 0.14303222 -0.021725118 -0.11112667 -0.0707693 0.12737346 -0.1527572 0.19938059
-0.026032187 0.14921682 -0.17020996 -0.13838227 0.0031352143 0.1656133 -0.10561094 0.115896985
-0.006898871 0.06006061 0.2594093 0.24494715 0.16933294 -0.036845844 0.1961385 -0.14366788
0.22103132 0.23073871 -0.13581973 0.022172973 -0.051107723 -0.09733127 -0.14852615 -0.15678006
0.015860008 0.12866901 0.15461251 -0.113434345 -0.22281921 -0.10278628
00000000: 4dd2 ee3d 7a70 6fbd bdbe 033e 992c 4cbd
00000010: a85d 113e 759d 52be a518 2dbe 5853 3fbe
00000020: d8cf a5bd e3af e53c 3fca 45be eae8 f4ba
00000030: e13b 3ebe 472f 15bd 4fa7 fb3d 8094 ddbd
00000040: 12a6 10be a850 60be 09bd 69bd de67 d43d
00000050: 92f2 273e 6bda f6bd e11c 93bc 453e 103e
00000060: 7fdd 533c 879e 55bb f3ca aa3b 9cde ad3c
00000070: e3b9 d4bc cf5a 5e3e ff41 923d 0a67 143d
00000080: dc09 4fbd a9e1 723d 9a38 223e 4cbe e83d
00000090: 6ab6 fbbd e4e5 26be 40b8 a53d 6043 bdbb
000000a0: bba5 1fbd 28d1 b7bb 99bc b53c e1fd 10bd
000000b0: 5d7b 053e 0b6a d1bd 7d4b 31be 1532 093e
000000c0: 1e7d cbbd 8a88 05be 2933 963d 32c8 0a3e
000000d0: 20fd e83c b406 69bd f406 273e 8500 d3bb
000000e0: 34ce e6bd 8068 66bd f274 0cbe 7ba5 a4bc
000000f0: f4ad 193e ccaf 6dbd 1e3f e8bd aaa6 16be
00000100: 88df 23be 6522 003e e64b a6bd 462d 2e3e
00000110: c30a 38be 1a08 35bd b1fb 43bb 35cb 2b3e
00000120: 5e83 c63d 78a8 97bb 1de1 d2bd 6683 9f3c
00000130: 5f56 22be 1925 623e e831 283e e0ee 393d
00000140: 0e55 083e 72dd 09be aff8 053c 0c5e f43d
00000150: 1dba f1bc c7df 843e 4b8d 163e 4e2f 7c3e
00000160: b8fb 703e fc8f 2bbe 9255 663e cb7c f73d
00000170: 509b a9bc 0365 e1bd 461e 3d3e 0d5a 5b3e
00000180: 7670 04be 8f01 153d b337 82bd a2da b1bc
00000190: a79b 1ebe 9071 1ebe ee65 c0bd 4b29 643e
000001a0: e6cf bbbc 1f20 a83d cd75 52bc fbc0 cfbb
000001b0: 2649 413e b736 2fbe 9184 f1bc 80b1 b03d
000001c0: afc2 a03c 0a77 123e e0f8 b1bc 6196 e3bd
000001d0: 7fef 90bd 306e 023e 626c 1cbe 6d2a 4c3e
000001e0: 7441 d5bc 4bcc 183e 854b 2ebe 15b4 0dbe
000001f0: 2b78 4d3b 8896 293e 8c4a d8bd 665b ed3d
00000200: ed0f e2bb 1d02 763d 4cd1 843e 6dd3 7a3e
00000210: 9d65 2d3e abeb 16bd 88d8 483e ac1d 13be
00000220: 0956 623e c546 6c3e 5414 0bbe 18a4 b53c
00000230: 5556 51bd 9e55 c7bd 3d17 18be f48a 20be
00000240: d9ec 813c cfc1 033e be52 1e3e 4450 e8bd
00000250: b82a 64be 9d81 d2bd

conv1.bias f4 [6]
0.20587511 -0.1617353 -0.121401094 0.14718185 -0.1525149 -0.029285742
00000000: edd0 523e f09d 25be 23a1 f8bd d7b6 163e
00000010: de2c 1cbe a7e8 efbc

conv2.weight f4 [16, 6, 5, 5]
0.06528743 -0.08245119 -0.02352161 -0.0007133166 0.089191005 -0.061038855 -0.09233723 -0.05972515
-0.046571273 0.0035457024 0.029581442 -0.07604189 -0.053483047 -0.036529515 0.01844903 -0.02818493
-0.07423011 0.012794956 -0.050404202 -0.039824937 0.016713988 0.012349397 0.049420536 -0.02691975
0.09680404 -0.03423648 0.07524768 -0.06113686 0.039219186 0.00815011 0.08293015 -0.004194265
-0.063894466 0.07996278 -0.07094981 -0.049079984 -0.040444873 0.07470815 0.01572057 -0.045652643
-0.043841407 0.012249492 0.05731236 -0.025759399 0.08748526 0.021784002 0.04865986 0.057065524
0.058597792 -0.024125267 -0.06934677 -0.032008708 -0.034561135 0.0881687 -0.051474437 -0.0043846318
-0.043377995 0.014887513 0.058198906 -0.043663174 0.06367856 -0.056152873 -0.0031872995 0.065804765
-0.04025435 0.03109702 0.0044875876 0.061487913 -0.05926574 0.04833148 0.0781604 0.011718375
0.07983356 0.031727772 0.0114582125 0.029503696 0.058876596 -0.023105402 0.077307165 -0.0733526
0.10389719 0.10635045 0.04415955 0.07897181 -0.028281864 -0.0033303124 -0.023453297 0.06857401
0.033575725 -0.019468203 0.105668195 0.09680617 -0.033457495 0.06394597 0.041616324 0.057492346
0.052414197 -0.04201595 0.07810223 -0.021928996 0.08183333 0.080875695 -0.022420011 0.037746564
0.008910212 -0.0035185504 0.051078077 -0.047243755 -0.040587474 -0.06494885 0.06260765 -0.07876654
-0.07942118 -0.079517506 0.030390164 0.051986035 0.013464636 -0.038724095 -0.036822196 -0.04573333
-0.07721697 0.06458637 -0.016708938 -0.04487649 -0.055155553 -0.080907434 0.082886405 -0.01698999
-0.03761325 -0.05593596 -0.047688585 0.07059169 0.0010553844 0.080825604 -0.036926214 0.020786872
0.052101705 -0.027688343 -0.037506208 -0.005449838 0.05518154 0.0026352494 0.0761812 0.09211178
0.06163959 0.03606151 -0.043806605 0.07764307 0.025107305 -0.00027367545 0.08380127 0.076707475
0.07132812 0.03298786 -0.03304158 0.012734164 0.029574668 0.06978366 -0.013507784 0.072157115
-0.017703963 -0.05024819 0.046299133 -0.038325526 -0.069100395 0.0049190903 -0.030649776 -0.006836377
0.0004402972 -0.017939325 0.0031056853 0.053919453 -0.009107365 -0.012432827 0.06266932 -0.04026482
-0.06398633 -0.04236411 -0.05664752 0.04969979 -0.07746782 -0.074078605 -0.004433185 0.037663374
0.039781235 0.018224835 -0.06075916 0.029281683 0.034229804 -0.07237839 -0.026155742 0.056627076
-0.014587199 -0.0641135 -0.072760336 0.066712506 -0.0056959637 0.004029516 0.021594318 0.01786661
0.0018083096 0.02372452 0.00019047817 0.0069055823 0.010433035 0.020464582 0.049773607 -0.004493677
0.0040535256 -0.07150632 -0.059597667 -0.02709999 -0.048263106 -0.030443389 0.019440245 -0.04459433
-0.06984553 0.018056795 -0.0081254905 0.048173666 -0.021566618 -0.020959029 -0.028547563 -0.06868076
-0.07942819 0.025678327 0.08051818 0.07172897 -0.021503985 0.02290777 0.08663301 -0.054309748
-0.016031772 -0.0059070126 -0.06488457 0.0082203 0.047526155 -0.034738123 -0.059087448 0.03866117
-0.01516943 0.018341597 -0.054873504 -0.024486056 -0.07324252 -0.033954 0.0012125039 -0.0011748932
-0.05975705 -0.051018067 0.044021778 -0.023942258 -0.07966054 -0.08118034 -0.049445882 0.0815747
00000000: 6bb5 853d 2bdc a8bd 64b0 c0bc defd 3aba
00000010: c6a9 b63d e103 7abd 4d1b bdbd 5ca2 74bd
00000020: 85c1 3ebd 045f 683b c854 f23c dabb 9bbd
00000030: 0a11 5bbd f99f 15bd 6c22 973c 15e4 e6bc
00000040: f505 98bd efa1 513c a374 4ebd 791f 23bd
00000050: c6eb 883c 2055 4a3c 306d 4a3d cf86 dcbc
00000060: 3241 c63d 8d3b 0cbd 751b 9a3d a56a 7abd
00000070: 4ca4 203d 0a88 053c 48d7 a93d 0c70 89bb
00000080: 1adb 82bd 87c3 a33d 224e 91bd 1808 49bd
00000090: 86a9 25bd 9600 993d 6dc8 803c 44fe 3abd
000000a0: 0c93 33bd 18b2 483c 5dc0 6a3d 6005 d3bc
000000b0: 792b b33d 5d74 b23c 904f 473d 8abd 693d
000000c0: 3d04 703d 5aa2 c5bc ae05 8ebd 901b 03bd
000000d0: fa8f 0dbd cb91 b43d dcd6 52bd f5ac 8fbb
000000e0: 20ad 31bd c1ea 733c fa61 6e3d 28d8 32bd
000000f0: e869 823d 8e00 66bd 03e2 50bb a6c4 863d
00000100: bfe1 24bd 2dbf fe3c 9d0c 933b c0da 7b3d
00000110: a2c0 72bd 3bf7 453d 8f12 a03d 6dfe 3f3c
00000120: c77f a33d fbf4 013d 3abb 3b3c bcb1 f13c
00000130: 9628 713d 8a47 bdbc 3853 9e3d e339 96bd
00000140: 0dc8 d43d 44ce d93d a5e0 343d f9bb a13d
00000150: 5eaf e7bc 5f41 5abb 2121 c0bc 8870 8c3d
00000160: b386 093d c87b 9fbc 9168 d83d 5042 c63d
00000170: ba0a 09bd 1bf6 823d e175 2a3d 187d 6b3d
00000180: 45b0 563d eb18 2cbd 10f4 9f3d 70a4 b3bc
00000190: 3c98 a73d 28a2 a53d 2caa b7bc 249c 1a3d
000001a0: 23fc 113c 7b97 66bb 3f37 513d ab82 41bd
000001b0: 0d3f 26bd e703 85bd 7138 803d 5a50 a1bd
000001c0: 92a7 a2bd 13da a2bd cbf4 f83c 4fef 543d
000001d0: c79a 5c3c 289d 1ebd dfd2 16bd df52 3bbd
000001e0: ee23 9ebd dc45 843d 2fe1 88bc 69d0 37bd
000001f0: caea 61bd ccb2 a5bd 59c0 a93d 972e 8bbc
00000200: 5a10 1abd 1b1d 65bd 1b55 43bd 6092 903d
00000210: d354 8a3a e587 a53d f13f 17bd 3b49 aa3c
00000220: 9968 553d aad2 e2bc 1ca0 19bd 8e94 b2bb
00000230: 0a06 623d 26b4 2c3b e404 9c3d 1aa5 bc3d
00000240: cb79 7c3d 3cb5 133d 8e6e 33bd 5403 9f3d
00000250: d6ad cd3c 197c 8fb9 00a0 ab3d cf18 9d3d
00000260: 7a14 923d 471e 073d 9c56 07bd f4a2 503c
00000270: 9346 f23c bcea 8e3d c14f 5dbc 1cc7 933d
00000280: e707 91bc 0cd1 4dbd 29a4 3d3d 3afb 1cbd
00000290: 8284 8dbd 5230 a13b 3d15 fbbc b003 e0bb
000002a0: b1d7 e639 7ef5 92bc c188 4b3b a5da 5c3d
000002b0: 0f37 15bc 0eb3 4bbc c658 803d b9ec 24bd
000002c0: 440b 83bd fd85 2dbd 3b07 68bd 0292 4b3d
000002d0: 73a7 9ebd 86b6 97bd 4044 91bb e944 1a3d
000002e0: a6f1 223d 404c 953c 99de 78bd 24e0 ef3c
000002f0: 8d34 0c3d 1f3b 94bd 9144 d6bc cbf1 673d
00000300: 26ff 6ebc f04d 83bd 5f03 95bd 91a0 883d
00000310: 35a5 babb 080a 843b 91e6 b03c ff5c 923c
00000320: cd04 ed3a ed59 c23c 18bb 4739 3948 e23b
00000330: 52ef 2a3c 57a5 a73c 69df 4b3d b23f 93bb
00000340: 70d3 843b e871 92bd af1c 74bd cc00 debc
00000350: 89af 45bd 6a64 f9bc 2641 9f3c 8ba8 36bd
00000360: 2c0b 8fbd d8eb 933c c720 05bc c051 453d
00000370: 7aac b0bc 45b2 abbc 94dc e9bc 80a8 8cbd
00000380: 3fab a2bd 5b5b d23c b7e6 a43d a3e6 923d
00000390: 2029 b0bc 13a9 bb3c a66c b13d e673 5ebd
000003a0: 1055 83bc 9d8f c1bb 34e2 84bd 70ae 063c
000003b0: c9aa 423d 9049 0ebd ae05 72bd 2d5b 1e3d
000003c0: 3389 78bc 1e41 963c 0ac3 60bd fb96 c8bc
000003d0: 2d00 96bd 5913 0bbd e1ec 9e3a e0fe 99ba
000003e0: cfc3 74bd 52f8 50bd 2e50 343d 8e22 c4bc
000003f0: 1125 a3bd e141 a6bd c487 4abd a310 a73d

conv2.bias f4 [16]
0.06161063 -0.031432897 -0.002211042 0.060273282 0.073653996 -0.027727919 0.06681111 -0.03695587
-0.057354625 -0.027852856 0.013885132 -0.011719123 0.05789757 0.0595255 0.0932192 0.0858407
00000000: 6e5b 7c3d c8bf 00bd 21e7 10bb 1ee1 763d
00000010: e8d7 963d a925 e3bc 43d4 883d 0a5f 17bd
00000020: afec 6abd ac2b e4bc 777e 633c 9101 40bc
00000030: 0126 6d3d 03d1 733d b5e9 be3d 40cd af3d

fc1.weight f4 [120, 256]
0.060553037 -0.040886585 -0.030967986 -0.009328538 -0.062142387 -0.039676797 -0.042883355 0.028342145
-0.05803656 -0.000101908314 -0.0059137363 0.04404455 -0.05090911 0.037706535 -0.02771611 -0.0040968456
0.051195085 0.049602557 -0.032122403 -0.030110378 -0.012374168 -0.033201292 -0.019734865 -0.060344175
-0.059592158 0.055899944 -0.021027807 0.054262534 0.041951697 -0.010852244 0.017647328 -0.058596127
-0.006517916 -0.025033996 -0.01068254 -0.049382355 0.04447144 0.006595057 -0.026029175 0.025462728
-0.0017766561 0.030781673 0.03212226 -0.00015849574 0.033922806 0.03142592 0.05642571 -0.0039595324
0.029126922 -0.061391342 -0.010506183 -0.05017196 -0.011243923 0.019523935 0.0012148068 -0.0030594433
-0.038384855 -0.062143188 0.0368487 0.04820477 0.05184315 0.048785284 -0.012425084 0.024009917
-0.04656916 0.05109517 0.056556996 0.041058343 0.061714303 -0.02822251 -0.04198458 -0.01619556
-0.043784857 -0.0305796 0.0020199658 0.046025522 -0.0052730055 -0.035794027 -0.015305133 0.033856858
-0.040295243 0.020335337 0.018491568 0.024243217 -0.009804776 -0.0034267397 0.030714283 -0.018073909
-0.007879123 0.044549204 -0.05232353 0.019155227 0.03227782 -0.05959916 -0.05206303 -0.017945085
-0.058887362 0.059577566 -0.03007618 0.037321195 -0.01815083 -0.04310232 0.024965988 -0.055337552
0.0032198448 -0.051863845 -0.0054237167 -0.040773336 -0.008250664 0.008747555 -0.060141467 -0.023928432
0.0063180714 -0.036885247 0.010045944 0.0013887321 0.052683957 -0.057244457 -0.037704114 -0.033540342
-0.042789668 0.0027755308 0.016292922 0.050833687 -0.029153358 0.05154856 -0.025536794 -0.05742545
-0.06207788 0.020831442 -0.033126563 0.03835893 -0.02036238 -0.05431748 0.041153796 0.026254838
-0.033174574 0.008577778 0.06065542 0.022187334 -0.043184835 -0.062334146 0.013872992 -0.038075995
-0.052946582 -0.031762067 0.00090604695 -0.05602712 0.018118067 0.0018830716 0.038515333 -0.021001028
-0.060606226 0.022042684 -0.01729262 0.035344884 0.018276246 -0.054497913 -0.055632025 0.013493838
-0.028023308 -0.050191753 -0.047924183 -0.044473 0.040406022 -0.030526096 0.021073064 0.0589817
-0.019060412 -0.031711884 -0.03932288 -0.047259726 -0.0011061509 0.04277809 0.061559845 -0.04265799
0.022537414 0.030000817 -0.018177006 0.038387664 -0.019954495 -0.024000043 -0.006237232 -0.010941162
-0.018622892 -0.0077192686 -0.030569889 0.032606304 0.01485865 -0.013196426 0.0014910488 -0.018724084
0.042508036 -0.000942545 0.05031369 -0.048383165 0.040676057 -0.024873756 -0.011085322 -0.0172729
0.057122894 0.043219697 0.019677868 0.05955569 0.009363113 0.04300387 0.03175496 -0.057893734
0.013800364 -0.024384 -0.002208259 -0.03665572 -0.017198393 -0.022664905 -0.055725306 0.02568794
-0.03720283 0.026992943 0.0026795138 0.020794189 0.03462283 0.0083324155 0.05816794 0.048147693
-0.023808934 0.007678912 0.0449451 0.06109548 -0.05536146 -0.059163015 -0.039230816 0.010715327
-0.023318477 -0.0071098725 -0.012542809 0.055956338 -0.034669876 -0.055936847 -0.037691914 0.012196755
0.016252337 -0.028938575 -0.014413132 0.012577998 0.028330784 -0.04329555 -0.02616633 -0.013747331
-0.008103554 0.049353853 0.025129726 -0.030272372 -0.0015631677 0.023046957 0.03783213 -0.030256392
00000000: 7606 783d b178 27bd 93b0 fdbc b9d6 18bc
00000010: 0489 7ebd 2384 22bd 75a6 2fbd c92d e83c
00000020: beb7 6dbd 9cb7 d5b8 04c8 c1bb 0f68 343d
00000030: 1286 50bd 2b72 1a3d e50c e3bc d53e 86bb
00000040: f0b1 513d 0d2c 4b3d c892 03bd 0aaa f6bc
00000050: 06bd 4abc 14fe 07bd 03ab a1bc 742b 77bd
00000060: e816 74bd 57f7 643d 8242 acbc 6442 5e3d
00000070: 8bd5 2b3d 9ccd 31bc 2191 903c 7e02 70bd
00000080: 3e94 d5bb 1814 cdbc d205 2fbc 2745 4abd
00000090: af27 363d 591b d83b 233b d5bc 3697 d03c
000000a0: b0de e8ba d929 fc3c a292 033d e031 26b9
000000b0: a4f2 0a3d 77b8 003d a51e 673d f7be 81bb
000000c0: 959b ee3c 7d75 7bbd 2022 2cbc 1d81 4dbd
000000d0: 6e38 38bc a9f0 9f3c 273a 9f3a f180 48bb
000000e0: 7039 1dbd db89 7ebd aaee 163d 5d72 453d
000000f0: 7c59 543d 14d3 473d 9492 4bbc 72b0 c43c
00000100: 4ebf 3ebd 2b49 513d 4fa8 673d cb2c 283d
00000110: 23c8 7c3d e532 e7bc 06f8 2bbd 8dac 84bc
00000120: c057 33bd 1282 fabc 6761 043b 4285 3c3d
00000130: 2dc9 acbb c29c 12bd 61c2 7abc 7dad 0a3d
00000140: a00c 25bd 4b96 a63c a17b 973c b699 c63c
00000150: 36a4 20bc 2793 60bb 859c fb3c bc0f 94bc
00000160: 7017 01bc 3a79 363d 3351 56bd 6ceb 9c3c
00000170: bf35 043d 401e 74bd 0b40 55bd 9201 93bc
00000180: e033 71bd 9b07 743d 5262 f6bc 1cde 183d
00000190: 0db1 94bc 0f8c 30bd 7985 cc3c a1a9 62bd
000001a0: 0804 533b 2f6f 54bd 6fb9 b1bb f101 27bd
000001b0: cb2d 07bc e851 0f3c e656 76bd 8f05 c4bc
000001c0: d307 cf3b fc14 17bd be97 243c 1e06 b63a
000001d0: 22cb 573d 2a79 6abd a16f 1abd 9961 09bd
000001e0: 3844 2fbd aee5 353b bc78 853c fc36 503d
000001f0: 06d3 eebc 9524 533d 8a32 d1bc f336 6bbd
00000200: 6045 7ebd b3a6 aa3c b8af 07bd 411e 1d3d
00000210: 02cf a6bc 027c 5ebd e290 283d 6314 d73c
00000220: 10e2 07bd cf89 0c3c d171 783d 36c2 b53c
00000230: 95e2 30bd 1752 7fbd 8c4b 633c 93f5 1bbd
00000240: 84de 58bd f118 02bd c883 6d3a b27c 65bd
00000250: 576c 943c 66d1 f63a 41c2 1d3d 590a acbc
00000260: 3c3e 78bd dc92 b43c 41a9 8dbc ccc5 103d
00000270: 11b8 953c 3439 5fbd 68de 63bd 4215 5d3c
00000280: 2391 e5bc de95 4dbd 264c 44bd 5229 36bd
00000290: c980 253d dd11 fabc 6ba1 ac3c cc96 713d
000002a0: 9524 9cbc 52e4 01bd 0711 21bd 6a93 41bd
000002b0: 44fc 90ba 1438 2f3d 2d26 7c3d 25ba 2ebd
000002c0: 62a0 b83c 46c4 f53c f2e7 94bc 623c 1d3d
000002d0: 9c77 a3bc bd9b c4bc b261 ccbb 8f42 33bc
000002e0: 098f 98bc ebf1 fcbb b46d fabc 308e 053d
000002f0: b271 733c d335 58bc 4c6f c33a 4063 99bc
00000300: e81c 2e3d 2015 77ba ba15 4e3d 6d2d 46bd
00000310: f09b 263d 0cc4 cbbc 369f 35bc e67f 8dbc
00000320: b2f9 693d 2307 313d 7b33 a13c abf0 733d
00000330: be67 193c d324 303d 7d11 023d fb21 6dbd
00000340: ec1a 623c f4c0 c7bc 70b8 10bb 4f24 16bd
00000350: a5e3 8cbc c0ab b9bc 3840 64bd 846f d23c
00000360: ff61 18bd 4e20 dd3c c89a 2f3b 9358 aa3c
00000370: abd0 0d3d af84 083c 8141 6e3d 8436 453d
00000380: f40a c3bc 629f fb3b 5a18 383d 413f 7a3d
00000390: b3c2 62bd eb54 72bd 7eb0 20bd 578f 2f3c
000003a0: 6406 bfbc eff9 e8bb 5b80 4dbc 7932 653d
000003b0: 0002 0ebd 091e 65bd d662 1abd e6d4 473c
000003c0: 9f23 853c 9710 edbc 0f25 6cbc f313 4e3c
000003d0: f615 e83c ad56 31bd c55a d6bc 7c3c 61bc
000003e0: c5c4 04bc 4427 4a3d dbdc cd3c c4fd f7bc
000003f0: 34e3 ccba f9cc bc3c ddf5 1a3d 41dc f7bc

fc1.bias f4 [120]
0.050359383 -0.045103256 -0.037834585 -0.04332176 -0.009973233 0.029051458 0.048774187 -0.026914936
0.01544732 0.06369037 0.014657022 0.015562179 -0.003677024 -0.027964232 -0.05016907 -0.05391846
-0.022353299 -0.03129469 0.008314453 -0.05633187 0.03127807 -0.060123578 0.00019775025 -0.05498192
0.051781956 -0.05905195 0.008348155 -0.02235975 0.01600562 -0.05766833 -0.016998397 -0.01451843
0.058347993 0.054080475 0.06635761 0.053922057 0.014820718 -0.002342071 0.052990906 -0.045645066
-0.009892259 0.00095379754 -0.007908824 -0.052190047 0.025586221 0.042825785 0.060288373 -0.031078609
-0.008340727 0.038365345 -0.012426128 0.018083787 -0.03219061 0.011407426 0.02260731 0.0049835737
0.062319245 -0.013228465 -0.01767892 0.0422014 0.043293893 -0.03113715 0.039310187 -0.027782515
-0.046070322 0.040681068 0.02860871 0.014368246 0.01848365 -0.011307071 0.030722888 0.033400442
0.011805577 -0.056218304 -0.018011298 0.06372416 -0.04599675 -0.04868954 0.032935653 0.049355324
0.0030025183 0.03673879 0.013496906 0.010374018 0.03545376 -0.029725507 0.031745996 0.023847789
0.05283898 0.059021525 0.035637043 0.0394648 0.016311327 0.039044436 -0.00080346956 -0.012820226
0.011686842 0.050089236 -0.04683875 -0.035793655 -0.010309126 0.009178959 -0.016598908 0.042697154
-0.027738288 -0.026972605 -0.0006163626 0.035073563 -0.0041391025 0.028685017 -0.0049283504 -0.031954553
0.049497202 0.053515546 -0.02655075 -0.034901172 0.016327873 0.004318513 -0.018808994 0.04959705
00000000: a445 4e3d 31be 38bd 70f8 1abd 2872 31bd
00000010: c566 23bc 53fd ed3c 71c7 473d b67c dcbc
00000020: c216 7d3c 1970 823d 0224 703c 82f8 7e3c
00000030: 3afa 70bb 3f15 e5bc 157e 4dbd 9ad9 5cbd
00000040: 441e b7bc dc2e 00bd 5839 083c 3fbc 66bd
00000050: 6f1d 003d 2444 76bd 2e5b 4f39 b934 61bd
00000060: 5119 543d 75e0 71bd b3c6 083c cb2b b7bc
00000070: 381e 833c a035 6cbd 3940 8bbc b6de 6dbc
00000080: 4efe 6e3d 7d83 5d3d 80e6 873d 60dd 5c3d
00000090: 99d2 723c 6e7d 19bb fe0c 593d 52f6 3abd
000000a0: 2413 22bc 4508 7a3a 0394 01bc 3bc5 55bd
000000b0: 329a d13c 176a 2f3d f1f0 763d 9198 febc
000000c0: 8ba7 08bc fb24 1d3d f596 4bbc 7324 943c
000000d0: 4dda 03bd 36e6 3a3c f732 b93c 3f4d a33b
000000e0: 7742 7f3d 34bc 58bc 62d3 90bc 60db 2c3d
000000f0: f054 313d 5613 ffbc b803 213d 2898 e3bc
00000100: 3cb4 3cbd 31a1 263d d05c ea3c cb68 6b3c
00000110: 066b 973c 4b41 39bc 91ae fb3c e7ce 083d
00000120: 2e6c 413c 2a45 66bd 6e8c 93bc d081 823d
00000130: 1767 3cbd af6e 47bd 89e7 063d cf28 4a3d
00000140: e6c5 443b 6a7b 163d 2022 5d3c c9f7 293c
00000150: f637 113d e882 f3bc 1708 023d 705c c33c
00000160: b06d 583d 8ec0 713d 26f8 113d d8a5 213d
00000170: 559f 853c 0fed 1f3d ee9f 52ba ed0b 52bc
00000180: 2b7a 3f3c 5f2a 4d3d fdd9 3fbd 5e9c 12bd
00000190: 9ce7 28bc 5863 163c 6ffa 87bc 36e3 2e3d
000001a0: 683b e3bc a7f5 dcbc 6593 21ba 4ca9 0f3d
000001b0: 4fa1 87bb d7fc ea3c 007e a1bb c7e2 02bd
000001c0: 94bd 4a3d 1e33 5b3d f580 d9bc 88f4 0ebd
000001d0: 08c2 853c 5082 8d3b 5215 9abc 4726 4b3d

fc2.weight f4 [84, 120]
-0.08435486 0.034618 0.0724194 -0.085774034 -0.050821323 0.07516794 0.043920707 0.015574531
0.0694332 0.09124853 -0.06739643 -0.0007270464 -0.004234984 -0.0290402 0.08040467 0.038922727
-0.07159626 -0.0803098 0.044277698 -0.021757161 0.027296603 -0.08210334 -0.048131067 0.032873083
0.012030439 -0.076730795 0.061022554 -0.045182955 -0.040467583 0.02002358 0.011462396 -0.0069991136
0.07519377 0.075073846 -0.03572223 -0.071871124 -0.07804099 0.0041367686 -0.032602035 -0.064576074
-0.059488583 -0.08436651 -0.03552207 0.009811989 0.08429629 -0.031783067 0.08154394 -0.0036417374
-0.0059630955 0.07362817 -0.010776794 0.006015095 -0.06473179 -0.056763805 0.05477681 0.061957106
-0.0027505497 0.030420443 -0.05399307 0.06131001 0.07780657 -0.05471487 0.077622615 0.003314176
-0.012283342 -0.012074096 -0.06894334 0.04278722 -0.048795003 0.06124886 0.012714633 0.060565203
-0.0879355 -0.059277486 0.09239436 0.028348323 0.021300003 0.045867156 0.012092539 0.048537705
-0.013371522 0.08491016 0.07745947 -0.068324886 0.07271041 -0.03613139 -0.015449631 0.016837986
0.047318857 0.005520464 -0.03973675 -0.07370925 0.0014282706 0.0037960454 -0.08160676 -0.019547867
-0.014892279 0.055365063 0.01007714 -0.047546353 -0.036994055 0.001451646 0.013479271 0.07565241
0.06299288 0.03583245 -0.004644823 0.025890911 -0.06803442 -0.08848895 -0.087969154 0.049167342
-0.025104977 0.01651703 -0.041593004 -0.030742314 0.05366044 0.01373101 0.00860814 -0.0028437944
0.075481124 0.05548696 0.092239566 -0.089517646 0.047471106 0.019601585 0.06592767 0.006701213
-0.02433829 0.043094203 0.010974025 -0.006330564 -0.05856846 0.027064484 0.037026275 -0.045017738
-0.020838995 -0.020026544 0.059520867 0.06999656 0.08026569 -0.009782411 -0.008143344 -0.06140951
0.07516362 0.03852047 -0.04265265 -0.032086067 0.01850299 -0.06436449 -0.032633226 0.07562012
-0.014245112 0.05784518 0.0155334715 0.0074031474 0.07303971 0.007613361 0.020606047 0.020811873
-0.067388244 -0.037318405 -0.03961902 -0.061850194 0.06284853 -0.049606603 0.03818401 0.06423873
-0.085468106 -0.034226347 0.006370317 -0.033534855 -0.07169655 -0.01381888 -0.040373933 -0.068808265
-0.009904434 0.02988247 -0.059961837 0.078975305 -0.028979076 -0.08023926 -0.03298318 0.020486504
0.07053811 0.083965346 0.07340629 0.07212679 -0.019790899 0.033779338 -0.059108015 -0.0754872
-0.0020541504 0.06115828 -0.08734134 0.05467966 -0.07781123 0.042632066 -0.005700532 -0.032889407
0.05134719 0.051738393 -0.0069156783 -0.03813857 0.10005285 -0.0013221803 0.066347025 -0.06497622
-0.04044573 -0.055108704 -0.041142214 -0.069282226 0.011992989 -0.055629175 0.084346116 0.06236911
-0.027019585 -0.0064621735 0.078452736 -0.0022936368 0.02942573 -0.0024218028 0.004128743 0.08368238
0.014960039 -0.046671722 -0.012022907 0.019437922 0.05141484 -0.043689493 -0.079720244 -0.01592179
0.028935976 0.040569708 -0.08326619 -0.060816284 0.055673648 0.03684567 -0.012478189 0.019560564
-0.0078355735 -0.0016657558 -0.07914318 -0.082106784 0.0055587664 0.03775684 0.03766579 0.002569297
0.053282734 0.01067118 -0.007461379 0.04747176 -0.0029353434 -0.021490937 0.064504966 -0.041430864
00000000: 3ec2 acbd 9bcb 0d3d 9f50 943d 4caa afbd
00000010: 052a 50bd a6f1 993d 33e6 333d 512c 7f3c
00000020: fe32 8e3d 82e0 ba3d 2407 8abd 4297 3eba
00000030: 9fc5 8abb b7e5 edbc 34ab a43d 706d 1f3d
00000040: 0fa1 92bd 7779 a4bd 885c 353d 133c b2bc
00000050: 209d df3c cc25 a8bd 1525 45bd eda5 063d
00000060: 521b 453c 0925 9dbd c9f2 793d c311 39bd
00000070: 56c1 25bd 7e08 a43c c6cc 3b3c d258 e5bb
00000080: 31ff 993d 51c0 993d 7951 12bd 2b31 93bd
00000090: f4d3 9fbd bb8d 873b b689 05bd 7640 84bd
000000a0: 4daa 73bd 59c8 acbd 977f 11bd 77c2 203c
000000b0: 89a3 ac3d f62e 02bd 8200 a73d 37aa 6ebb
000000c0: 1266 c3bb 5eca 963d 2691 30bc 461a c53b
000000d0: 1a92 84bd 2a81 68bd a65d 603d bcc6 7d3d
000000e0: 9142 34bb 4b34 f93c d627 5dbd 3420 7b3d
000000f0: 0d59 9f3d b31c 60bd 9bf8 9e3d a632 593b
00000100: 1240 49bc 6ed2 45bc 2a32 8dbd a741 2f3d
00000110: 45dd 47bd 16e0 7a3d 0951 503c 3813 783d
00000120: 8717 b4bd f3cc 72bd 4139 bd3d be3a e83c
00000130: 587d ae3c 33df 3b3d c91f 463c 79cf 463d
00000140: 3a14 5bbc 61e5 ad3d 12a3 9e3d ebed 8bbd
00000150: 32e9 943d 82fe 13bd 7320 7dbc d1ef 893c
00000160: 6bd1 413d 02e5 b43b 01c3 22bd e0f4 96bd
00000170: cf34 bb3a 13c7 783b 7221 a7bd d922 a0bc
00000180: bffe 73bc 7ac6 623d 971a 253c f7bf 42bd
00000190: 1487 17bd 2845 be3a 29d8 5c3c a7ef 9a3d
000001a0: 6902 813d 0cc5 123d 9933 98bb 2d19 d43c
000001b0: a155 8bbd b239 b5bd 2c29 b4bd b263 493d
000001c0: f4a8 cdbc b94e 873c 6d5d 2abd 4ed7 fbbc
000001d0: 0dcb 5b3d 08f8 603c 2809 0d3c f45e 3abb
000001e0: d995 9a3d 4b46 633d 19e8 bc3d 0755 b7bd
000001f0: 1071 423d 8193 a03c 1605 873d d995 db3b
00000200: 1861 c7bc 8c83 303d 66cc 333c 9f70 cfbb
00000210: 7be5 6fbd 56b6 dd3c dda8 173d 8564 38bd
00000220: 8ab6 aabc b50e a4bc 27cc 733d 5b5a 8f3d
00000230: 5762 a43d 6846 20bc a96b 05bc 8a88 7bbd
00000240: 62ef 993d a4c7 1d3d 8cb4 2ebd ae6c 03bd
00000250: 9593 973c 88d1 83bd 6baa 05bd b9de 9a3d
00000260: 5564 69bc 11ef 6c3d 1a80 7e3c 1a96 f23b
00000270: d895 953d 8079 f93b 03ce a83c a97d aa3c
00000280: d902 8abd 2fdb 18bd 8e47 22bd a156 7dbd
00000290: bbb6 803d 4b30 4bbd d666 1c3d 988f 833d
000002a0: e709 afbd ed30 0cbd 18be d03b d85b 09bd
000002b0: a4d5 92bd 9568 62bc 235f 25bd 59eb 8cbd
000002c0: 3546 22bc 15cc f43c 8b9a 75bd cebd a13d
000002d0: 8765 edbc 7b54 a4bd 5f19 07bd 50d3 a73c
000002e0: 4976 903d 06f6 ab3d 0956 963d 36b7 933d
000002f0: 8620 a2bc 345c 0a3d 3f1b 72bd 0899 9abd
00000300: ed9e 06bb 1b81 7a3d 04e0 b2bd c7f7 5f3d
00000310: 7f5b 9fbd f69e 2e3d 87cb babb 0bb7 06bd
00000320: 6e51 523d a3eb 533d ea9c e2bb 3037 1cbd
00000330: 82e8 cc3d 024d adba f3e0 873d 4112 85bd
00000340: 6caa 25bd aab9 61bd bd84 28bd d7e3 8dbd
00000350: 3e7e 443c 6bdb 63bd a8bd ac3d c076 7f3d
00000360: 2d58 ddbc a4c0 d3bb d4ab a03d d750 16bb
00000370: 3b0e f13c 1cb7 1ebb 684a 873b ab61 ab3d
00000380: f41a 753c d92a 3fbd bafb 44bc 473c 9f3c
00000390: 5e98 523d c1f3 32bd 5e44 a3bd 6a6e 82bc
000003a0: 240b ed3c 6c2c 263d 7787 aabd 7f1a 79bd
000003b0: 0d0a 643d 7ceb 163d 5171 4cbc 7a3d a03c
000003c0: c760 00bc 7d55 daba d215 a2bd 9a27 a8bd
000003d0: 5026 b63b eba6 1a3d 7247 1a3d a761 283b
000003e0: ff3e 5a3d 2cd6 2e3c 957e f4bb c071 423d
000003f0: e45e 40bb c30d b0bc 2e1b 843d 69b3 29bd

fc2.bias f4 [84]
0.05593906 0.08615599 -0.09090883 0.082589075 -0.06918533 0.049568925 0.066278465 0.060823813
-0.025340058 0.021283843 -0.011140686 -0.056033026 0.02619581 0.027068377 -0.06540629 0.08553881
0.08194484 0.06179475 -0.049381856 0.059458483 -0.07315002 0.051007167 -0.056906436 -0.0024950341
0.008953245 0.07399505 0.035619166 0.01098228 -0.020579074 0.03833976 0.04780525 0.014847407
0.038589988 -0.046048805 0.042223077 -0.0016464132 -0.021861944 -0.02241931 0.014405649 -0.0055894735
0.043799847 -0.0013940769 0.07296326 0.05389179 -0.0850872 0.0019529774 0.060663197 0.015615678
0.0046594026 0.07986092 -0.06342173 -0.07155936 -0.005269004 -0.08294922 0.055444393 -0.068896376
0.04245325 0.076957144 0.06362893 0.016431674 -0.02139133 0.040779166 0.034524977 0.07795789
-0.076239794 -0.057831023 -0.008843474 -0.032381784 0.013390709 0.07291842 -0.010816337 -0.05141443
-0.051652383 -0.04569411 -0.047431692 -0.018573686 0.016670411 -0.06781387 0.07618311 -0.081346564
-0.047801338 0.10117491 0.041589454 -0.046916176
00000000: 5b20 653d 8d72 b03d 692e babd 7624 a93d
00000010: 0ab1 8dbd c908 4b3d 01bd 873d 6422 793d
00000020: f495 cfbc 745b ae3c 6d87 36bc e382 65bd
00000030: 9898 d63c 80be dd3c bcf3 85bd f92e af3d
00000040: b2d2 a73d 7e1c 7d3d a144 4abd bd8a 733d
00000050: adcf 95bd e4ec 503d b916 69bd ba83 23bb
00000060: a2b0 123c b78a 973d 67e5 113d 05ef 333c
00000070: 7295 a8bc 270a 1d3d 70cf 433d 8a42 733c
00000080: 8910 1e3d ac9d 3cbd 1bf2 2c3d 76cc d7ba
00000090: d217 b3bc b3a8 b7bc ac05 6c3c e727 b7bb
000000a0: 7867 333d 75b9 b6ba c36d 953d a3bd 5c3d
000000b0: 3342 aebd 0cfb ff3a f979 783d e7d8 7f3c
000000c0: e7ad 983b 1f8e a33d 41e3 81bd b78d 92bd
000000d0: 9ca7 acbb 48e1 a9bd a919 633d 8b19 8dbd
000000e0: 76e3 2d3d b59b 9d3d e24f 823d b89b 863c
000000f0: df3c afbc 0e08 273d 106a 0d3d 63a8 9f3d
00000100: 9c23 9cbd 39e0 6cbd 38e4 10bc c3a2 04bd
00000110: b464 5b3c 4156 953d 0137 31bc f097 52bd
00000120: 7391 53bd bf29 3bbd bc47 42bd d827 98bc
00000130: 6390 883c 00e2 8abd e405 9c3d 0799 a6bd
00000140: 56cb 43bd cb34 cf3d b459 2a3d 2d2b 40bd

fc3.weight f4 [10, 84]
-0.015143338 0.10390313 -0.080319844 -0.010402522 -0.016955458 0.008128124 0.11195474 0.05717961
-0.042876765 -0.002122464 0.062556505 0.1083058 0.053902704 -0.027132591 0.08208705 -0.05393484
-0.10332261 0.027285555 0.069929205 0.02361783 0.036676414 0.06467899 0.0124709355 0.02113833
0.032505594 -0.043221455 -0.05855952 0.09458599 -0.051391654 0.0027690253 -0.100050144 0.01519975
0.04300127 -0.06606017 -0.03668178 0.07430498 0.07048741 0.082568735 0.100958735 0.08728706
-0.081912205 -0.00042962737 0.12489425 0.08700774 -0.07107873 -0.037349857 -0.050276242 0.07195435
0.0053334883 -0.03893135 -0.116948426 -0.04645014 0.062344987 -0.067906424 -0.112508915 0.08953168
0.0012564159 -0.09006223 -0.053413045 0.07200433 -0.09637952 0.02631826 0.11038789 0.021435685
0.03952264 0.06658605 -0.049608972 0.08668127 -0.048765052 0.0241174 -0.049340725 -0.0804419
0.04022945 -0.103162326 0.10895463 -0.017536836 0.053043436 -0.084337205 0.12371857 -0.10498016
-0.015320461 0.063148305 0.056335017 -0.013514049 -0.040071804 0.052752562 -0.06488866 0.0041143033
0.023882804 -0.07319092 0.034335654 -0.012933057 0.06689367 -0.08614847 -0.1113155 0.0022312934
-0.123087205 0.035094254 -0.045029324 0.14025515 0.03614997 0.098867245 -0.10443781 -0.043852177
-0.039293226 -0.06277389 0.026190478 0.011705347 0.06629717 0.04763999 -0.023200065 -0.00021004259
0.08631863 0.023363512 -0.11495321 -0.028996186 -0.13024527 0.04740656 -0.08567499 -0.0432119
0.0038861772 -0.09079051 -0.07742993 0.056989573 0.06665675 0.015684301 -0.11402091 -0.05339165
-0.021786377 0.081751086 0.113898836 -0.109243505 0.094223894 -0.011823373 0.07202445 -0.017261786
-0.001954728 -0.08181214 0.16624323 0.02932045 -0.00918735 0.07558197 -0.07008782 -0.0786303
-0.1169241 -0.08229305 -0.108388156 -0.038352612 0.06353651 -0.048851363 -0.0667662 0.024738874
0.14896728 0.0083986055 0.08550371 -0.012996626 -0.033242602 0.03840799 -0.07692448 -0.043885916
-0.0014428276 0.023904914 0.060078923 0.072152525 0.05937972 -0.08020006 0.041694354 -0.092224024
0.007708328 -0.08672777 0.09804106 -0.052218836 0.106914125 0.0827855 0.08503398 0.027765438
-0.027182832 -0.06814866 0.08484352 -0.07421151 0.076999515 0.0895058 -0.035572115 0.017567005
-0.0004043089 -0.07066559 0.06892889 0.09960305 -0.083230786 0.0015523576 0.044812236 0.12014646
-0.08790762 -0.121113375 0.056583166 -0.035836194 -0.07324614 -0.10710973 0.019075217 -0.055124715
-0.052953858 0.06004435 -0.0066368612 -0.03326713 0.03084003 0.022765484 0.018071905 0.03603321
-0.05695399 0.017898394 0.04921494 -0.034746855 -0.09057295 -0.014957013 -0.027493436 0.03138706
-0.08210612 -0.04308201 0.01069119 0.022466136 0.018069254 -0.06041616 -0.0978425 -0.062312383
0.10434018 0.08366366 0.093198776 -0.005296984 0.024256816 0.04573606 0.0076540974 0.07747138
-0.05289807 0.0057219234 0.074748844 -0.054838628 0.06854063 -0.08688744 0.059202064 0.0043288427
0.026206875 -0.04507211 0.01810924 -0.088782124 0.015773598 0.061034616 -0.06803289 0.067745395
-0.09204741 0.018617522 -0.002108401 0.09730813 0.027898593 -0.05422474 -0.0046145464 0.05096753
00000000: c31b 78bc 2acb d43d bb7e a4bd 576f 2abc
00000010: 2ce6 8abc d32b 053c 8748 e53d 2b35 6a3d
00000020: 8c9f 2fbd 0919 0bbb a01d 803d 6ecf dd3d
00000030: 15c9 5c3d 2b45 debc 411d a83d c7ea 5cbd
00000040: ce9a d3bd f585 df3c 0b37 8f3d 2e7a c13c
00000050: 023a 163d 6b76 843d e552 4c3c 4b2a ad3c
00000060: 9624 053d fb08 31bd 1bdc 6fbd 4db6 c13d
00000070: 0e80 52bd 8978 353b 17e7 ccbd 5f08 793c
00000080: 1a22 303d 8e4a 87bd a23f 16bd 362d 983d
00000090: b45b 903d cc19 a93d 74c3 ce3d 8fc3 b23d
000000a0: 96c1 a7bd 9c3f e1b9 8ec8 ff3d 1d31 b23d
000000b0: ba91 91bd 2afc 18bd 76ee 4dbd cd5c 933d
000000c0: 8bc4 ae3b 7b76 1fbd a882 efbd 8142 3ebd
000000d0: 755d 7f3d 8612 8bbd 136b e6bd 635c b73d
000000e0: 52ae a43a 8c72 b8bd a3c7 5abd 0277 933d
000000f0: a062 c5bd 6499 d73c 0c13 e23d e499 af3c
00000100: 7ee2 213d 445e 883d c732 4bbd f385 b13d
00000110: ddbd 47bd db91 c53c 8019 4abd b9be a4bd
00000120: a3c7 243d c546 d3bd 9b23 df3d 69a9 8fbc
00000130: 1344 593d fcb8 acbd 2960 fd3d d7ff d6bd
00000140: ac02 7bbc e653 813d 8cbf 663d 086a 5dbc
00000150: 5522 24bd 1213 583d 59e4 84bd 47d1 863b
00000160: dfa5 c33c 1fe5 95bd 8ba3 0c3d 2ce5 53bc
00000170: 8cff 883d 9c6e b0bd 62f9 e3bd e43a 123b
00000180: 2515 fcbd febe 0f3d ab70 38bd 0c9f 0f3e
00000190: fe11 143d e97a ca3d 7ee3 d5bd 579e 33bd
000001a0: eff1 20bd 998f 80bd 6a8d d63c c9c7 3f3c
000001b0: d0c6 873d 2622 433d 100e bebc e13e 5cb9
000001c0: d2c7 b03d d664 bf3c 976c ebbd 6989 edbc
000001d0: 045f 05be 622d 423d 5f76 afbd f6fe 30bd
000001e0: 3caf 7e3b 60f0 b9bd 9593 9ebd e66d 693d
000001f0: 5683 883d 5d7c 803c cb83 e9bd 34b1 5abd
00000200: 5879 b2bc 1d6d a73d cb43 e93d 0fbb dfbd
00000210: 75f8 c03d d2b6 41bc 8e81 933d 9768 8dbc
00000220: e51a 00bb 208d a7bd aa3b 2a3e 7131 f03c
00000230: 8a86 16bc b8ca 9a3d 348a 8fbd ec08 a1bd
00000240: e775 efbd 4289 a8bd 9cfa ddbd a117 1dbd
00000250: 6e1f 823d 5e18 48bd b8bc 88bd 2ea9 ca3c
00000260: e18a 183e 4e9a 093c 921c af3d cdef 54bc
00000270: 6529 08bd b251 1d3d 958a 9dbd b8c1 33bd
00000280: 431d bdba 3dd4 c33c 5115 763d b4c4 933d
00000290: 2638 733d ee3f a4bd b3c7 2a3d f3df bcbd
000002a0: 2496 fc3b 549e b1bd c0c9 c83d 6be3 55bd
000002b0: cbf5 da3d 728b a93d 4c26 ae3d 5874 e33c
000002c0: 88ae debc 8691 8bbd 70c2 ad3d 34fc 97bd
000002d0: ecb1 9d3d d14e b73d 11b4 11bd aee8 8f3c
000002e0: 6cf9 d3b9 1fb9 90bd 972a 8d3d affc cb3d
000002f0: e774 aabd 7a78 cb3a 098d 373d 590f f63d
00000300: e908 b4bd 4a0a f8bd c0c3 673d f9c8 12bd
00000310: 1202 96bd 595c dbbd a143 9c3c 74ca 61bd
00000320: 25e6 58bd 10f1 753d 077a d9bb 1d43 08bd
00000330: 3ba4 fc3c ae7e ba3c 880b 943c 8f97 133d
00000340: 9648 69bd a79f 923c 9b95 493d b852 0ebd
00000350: 507e b9bd 420e 75bc ea39 e1bc b88f 003d
00000360: 4127 a8bd c376 30bd 1a2a 2f3c e70a b83c
00000370: f905 943c ef76 77bd a661 c8bd 453b 7fbd
00000380: 4eb0 d53d da57 ab3d 00df be3d 5392 adbb
00000390: 3bb6 c63c bc55 3b3d 39cf fa3b 51a9 9e3d
000003a0: a6ab 58bd f97e bb3b ec15 993d 789e 60bd
000003b0: 085f 8c3d 0bf2 b1bd dd7d 723d f7d8 8d3b
000003c0: cdaf d63c 889d 38bd d459 943c 67d3 b5bd
000003d0: a237 813c 6fff 793d d454 8bbd 19be 8a3d
000003e0: 5a83 bcbd c683 983c 192d 0abb 7c49 c73d
000003f0: 978b e43c c31a 5ebd 9f35 97bb 54c3 503d

fc3.bias f4 [10]
-0.03024537 0.08502335 0.07206628 0.02660848 -0.036387306 0.0049636182 -0.0471928 0.044021167
-0.006474763 0.0808588
00000000: 23c5 f7bc b920 ae3d 7c97 933d 07fa d93c
00000010: db0a 15bd d9a5 a23b 3d4d 41bd 8a4f 343d
00000020: 402a d4bb 4c99 a53d
